__pycache__/model_onnx/eyeclassification.onnx (onnx, 491441 bytes, 143 tensors)

1 f4 [16, 3, 3, 3]
-0.08264687 0.037626266 -0.013882596 -0.07772955 0.045804866 -0.13776176 0.20759228 -0.017248377
0.014333905 -0.09287048 -0.21917653 -0.1523856 -0.10878014 -0.007492336 -0.19162592 -0.14888781
-0.037488177 -0.052251622 -0.16545253 -0.057539076 -0.24820337 -0.082028426 0.032993257 0.052236028
-0.0912259 -0.01836116 -0.14646873 0.07540049 -0.08080706 -0.13066837 -0.11064645 -0.0142542375
0.11276841 -0.012989494 0.19861625 -0.019616632 0.062891334 0.017122626 -0.13781925 -0.1711452
0.005484048 0.2092327 0.052733094 0.24417786 -0.0530561 0.06129783 -0.16674197 0.021517938
0.15050186 0.13630602 0.14418228 0.13401595 0.29818672 -0.13212104 -0.029452188 0.062355857
0.30050018 0.31520385 -0.0550277 0.013449069 -0.10450096 0.015434402 -0.02938518 0.08304958
0.15631749 0.16916177 0.03886976 0.17319755 0.0936826 0.18603447 0.15570126 -0.06907911
-0.14932887 0.26376837 -0.12715234 0.08169065 0.22826414 -0.15204097 0.1221985 -0.08009378
0.120694205 0.14468855 -0.27079776 -0.13475671 -0.030120453 0.1191093 0.18546757 0.107464746
-0.0053142137 0.1334275 -0.14776206 0.054655187 -0.049384832 -0.008945203 0.138845 -0.17289479
0.13546367 0.13224983 0.1622087 -0.24593765 0.13708384 0.041165452 -0.12420406 0.009768747
0.12309476 -0.019211022 0.17024918 0.17534643 0.18165758 0.28971365 0.012998 -0.30604848
-0.15409899 -0.08547628 -0.13521968 -0.42243952 0.26111516 0.19173652 0.22563362 -0.08910476
-0.41714087 -0.17619476 -0.34180054 -0.3772349 -0.1757583 0.043574765 0.3746855 0.37349436
0.05199323 -0.015364158 -0.19927782 -0.064675495 -0.120754264 -0.18902546 0.09336978 -0.18151517
-0.015697073 -0.06277151 0.11370005 -0.04214385 -0.187628 -0.15436026 0.3036369 -0.045233585
-0.40628767 0.0077445144 -0.20988217 -0.06532105 -0.14832918 -0.004918543 0.07336514 0.25355333
0.19659695 -0.15352611 -0.2621915 -0.03363154 0.06775805 0.08012175 -0.061008967 0.20363818
-0.19611944 0.14199068 -0.11538981 -0.21851356 -0.3504634 0.13044673 0.1355338 0.113607995
0.052019477 0.11339937 0.06816055 -0.090425014 -0.2635917 -0.056815304 0.043527547 0.027989589
-0.18967721 0.06464265 0.051501255 -0.0382313 0.029886633 -0.22551218 -0.2555955 -0.056620877
-0.030531758 0.078726605 0.06651158 -0.047530733 -0.072662495 0.29377648 0.1273879 0.12905383
0.3727763 -0.09000244 0.12296732 0.18682568 -0.055566166 0.018412538 -0.05362551 -0.041535437
-0.06679398 0.018419236 0.015449951 0.10305603 -0.1894443 0.06579362 -0.16637462 0.047649454
0.12120362 -0.13511789 0.007908578 -0.01563432 0.13415173 0.06538215 -0.14063615 -0.041708004
0.10229135 0.041119754 0.10736935 0.34350228 -0.06426477 -0.043934066 -0.0003323289 -0.10142488
-0.14283206 0.15275985 -0.032296225 -0.3178371 0.16630833 0.117981024 -0.16050152 0.17913243
0.0193523 -0.14146972 0.11334103 0.022962566 -0.04645688 0.28532746 0.023472814 -0.13647489
0.3343218 -0.12049861 -0.22436473 0.11006817 0.46004063 0.42876935 -0.20310041 -0.10057012
0.1654717 -0.29837313 -0.2615648 -0.20433988 -0.0014672973 0.32031608 0.35732767 -0.21487948
00000000: c342 a9bd 001e 1a3d d473 63bc ac30 9fbd
00000010: e29d 3b3d 6b11 0dbe 1293 543e 784c 8dbc
00000020: c1d8 6a3c e132 bebd d06f 60be f90a 1cbe
00000030: 1fc8 debd 4582 f5bb 9639 44be 0c76 18be
00000040: 348d 19bd cc05 56bd 636c 29be 18ae 6bbd
00000050: 0629 7ebe 85fe a7bd f023 073d 72f5 553d
00000060: a5d4 babd 256a 96bc e6fb 15be 926b 9a3d
00000070: 2c7e a5bd eecd 05be 9b9a e2bd 9b8a 69bc
00000080: 20f3 e63d e3d1 54bc 0f62 4b3e 0fb3 a0bc
00000090: 2ccd 803d c044 8c3c 7d20 0dbe b040 2fbe
000000a0: 87b3 b33b 1941 563e a8fe 573d c309 7a3e
000000b0: 5a51 59bd 6f13 7b3d 68be 2abe 6346 b03c
000000c0: 291d 1a3e ce93 0b3e 85a4 133e 7a3b 093e
000000d0: eeab 983e bd4a 07be b745 f1bc db68 7f3d
000000e0: 29db 993e 6662 a13e ba64 61bd 7c59 5c3c
000000f0: 9904 d6bd 93e0 7c3c 30b9 f0bc e615 aa3d
00000100: b111 203e be38 2d3e e635 1f3d b35a 313e
00000110: aadc bf3d d27f 3e3e 2770 1f3e 5979 8dbd
00000120: abe9 18be a60c 873e 3934 02be 6d4d a73d
00000130: 13be 693e a1b0 1bbe 3543 fa3d 3508 a4bd
00000140: 862e f73d 3c29 143e 01a6 8abe aafd 09be
00000150: 2bbf f6bc 94ef f33d 36eb 3d3e 7a16 dc3d
00000160: db22 aebb 38a1 083e f04e 17be 1ede 5f3d
00000170: c047 4abd e78e 12bc 622d 0e3e 550b 31be
00000180: fdb6 0a3e 806c 073e 0a1a 263e 14d7 7bbe
00000190: b55f 0c3e 1b9d 283d b35e febd 180d 203c
000001a0: 1b19 fc3d 6f60 9dbc cd55 2e3e 048e 333e
000001b0: 7204 3a3e 5955 943e 90f5 543c 63b2 9cbe
000001c0: 20cc 1dbe 300e afbd 0777 0abe fe49 d8be
000001d0: e3b0 853e 9456 443e 800c 673e 8e7c b6bd
000001e0: 7d93 d5be 666c 34be 7b00 afbe ef24 c1be
000001f0: fcf9 33be 747b 323d c7d6 bf3e a73a bf3e
00000200: daf6 543d f3b9 7bbc 7c0f 4cbe 9674 84bd
00000210: 034e f7bd e48f 41be a838 bf3d 1ddf 39be
00000220: 2697 80bc 598e 80bd 92db e83d 089f 2cbd
00000230: 8e21 40be 9e10 1ebe 4c76 9b3e da46 39bd
00000240: f004 d0be b2c5 fd3b 5aeb 56be 0bc7 85bd
00000250: 9be3 17be bb2b a1bb 7640 963d bed1 813e
00000260: b650 493e f335 1dbe f73d 86be 3ac1 09bd
00000270: bcc4 8a3d df16 a43d 8ae4 79bd 8786 503e
00000280: 89d3 48be 0166 113e 7e51 ecbd 05c2 5fbe
00000290: f06f b3be d493 053e 5fc9 0a3e 4fab e83d
000002a0: 6012 553d ee3d e83d c297 8b3d c030 b9bd
000002b0: 7ef5 86be 2ab7 68bd f149 323d 6c4a e53c
000002c0: be3a 42be 5e63 843d fbf2 523d 6c98 1cbd
000002d0: d0d4 f43c aaec 66be 6add 82be 4beb 67bd
000002e0: bd1d fabc 6a3b a13d 3937 883d 96af 42bd
000002f0: 13d0 94bd df69 963e f971 023e b026 043e
00000300: 89dc be3e 3353 b8bd 4ad6 fb3d 3b4f 3f3e
00000310: 5999 63bd e4d5 963c 6ca6 5bbd 1021 2abd
00000320: 48cb 88bd f0e3 963c cb21 7d3c 0a0f d33d
00000330: b0fd 41be cebe 863d 1c5e 2abe 132c 433d
00000340: 9b39 f83d 585c 0abe fb92 013c 8c13 80bc
00000350: 125f 093e 14e7 853d ec02 10be 03d6 2abd
00000360: 217e d13d 306d 283d 76e4 db3d 88df af3e
00000370: 3f9d 83bd 35f4 33bd 6e3c aeb9 d9b7 cfbd
00000380: 9142 12be 146d 1c3e 0c49 04bd 8bbb a2be
00000390: bb4c 2a3e 09a0 f13d 835a 24be 7e6e 373e
000003a0: b788 9e3c 70dd 10be 581f e83d fe1b bc3c
000003b0: 9249 3ebd 7116 923e 0f4a c03c 13c0 0bbe
000003c0: 3a2c ab3e fac7 f6bd debf 65be 6c6b e13d
000003d0: 728a eb3e a887 db3e 8ef9 4fbe b5f7 cdbd
000003e0: 6a71 293e 5dc4 98be d2eb 85be 793e 51be
000003f0: 5452 c0ba 7800 a43e a7f3 b63e 5e09 5cbe

10 f4 [16]
-0.13303241 -0.21491173 -0.3205609 0.10426392 0.3357129 0.23449078 0.2652779 -0.12753238
0.100387 -0.56481665 0.1821421 0.18215911 0.001277941 -0.12379736 0.21071659 0.35765222
00000000: a639 08be d211 5cbe 8f20 a4be 5288 d53d
00000010: 90e2 ab3e 5a1e 703e 81d2 873e d997 02be
00000020: b397 cd3d d397 10bf 7583 3a3e eb87 3a3e
00000030: 9680 a73a 7889 fdbd 17c6 573e 311e b73e

100 f4 [240]
-0.0066505764 0.005866266 -0.0005077924 -0.004027941 -0.0004191887 0.0007145958 -0.008311088 -0.00551705
0.005501946 -0.002683776 -0.0042009153 -0.0016000293 0.00088406686 -0.003302749 -0.006220993 0.005274584
-0.00029068903 0.0019560577 -0.0050801826 -0.0017538108 0.0047231154 0.02868348 0.007513432 -0.00871735
-0.00083672086 -0.017062254 0.021380283 -0.0032171742 0.0064728763 0.010614391 -0.002866916 2.0884043e-05
-0.0020401326 -0.0031988388 0.005843396 -0.008885262 -0.003344473 -0.010637968 -0.0071919025 0.012163941
-0.0008436412 0.002279156 -0.0022427284 0.0020402442 -0.010123888 0.0012975544 0.0068760896 -0.0039051198
0.004919197 -0.007383816 0.010424925 -0.00037539125 -0.0040943767 0.006802991 -0.0058969674 -0.0013930569
0.00013268107 0.0018080691 -0.009914856 -0.0029153775 0.0016099993 -0.009617419 -0.0027876375 -0.0021884425
-0.000485256 -0.012227797 -0.005281756 0.00069038465 0.0018013205 0.007832007 0.008116833 -0.0038926464
0.0034918324 0.0059165885 -0.001800181 0.004390351 -0.0031579677 -0.004619813 -0.00060312374 0.0038682232
-0.0036569533 -0.000351568 0.0135479625 0.003628485 0.00207114 0.0018058892 -0.0038487182 0.0010515726
0.0045814305 0.00015185469 -0.003735016 -0.012155941 -0.0013595005 0.002123874 -0.0010105433 -0.010591872
0.010333151 0.00018452897 0.001826614 -0.0009326516 -0.003854374 0.0076922006 -0.0056897774 -0.004162102
-0.004191136 0.0073730764 0.0020431085 0.007723279 0.006531137 -0.0068456517 0.00060723344 -0.0109565705
0.0088082645 0.002829608 -0.00031095097 -0.0057096733 0.016098153 -0.003177011 -0.0009181448 0.0017709888
0.023087824 -0.019971557 -0.009167366 0.014494995 0.024837136 0.0047678775 -0.011543742 0.020434922
0.010891694 -0.018284965 0.010707084 -0.01707191 -0.01228425 0.012969331 0.04316189 -0.017650366
0.012751127 -0.004205203 -0.0023751114 -0.00025706497 -0.0030849546 -0.0039142077 -0.018845752 0.011500832
-0.016234692 -0.0081214225 -0.019489467 0.011545708 -0.0068724924 0.007663415 -0.01630107 0.024804533
0.013074425 0.009906293 -0.000711089 0.008489797 -0.008824554 -0.008739147 -0.020047061 0.007975958
-0.0091948295 -0.0051860926 0.0025155633 0.008272325 0.001638071 0.005030855 -0.003784847 -0.009495931
-0.001485397 0.016107067 0.015594084 0.02412974 7.068965e-05 0.0004435617 0.022578288 -0.0071899667
0.04883878 0.00865 -0.004542078 -0.02211171 -0.011218199 -0.0010023735 0.014647428 0.005685182
-0.007674078 -5.1165676e-05 -0.015368839 -0.0064015705 -0.021365464 0.00892055 0.00903328 -0.015789883
0.025534103 -0.0053660832 -0.014035505 -0.014728339 0.00018366647 -0.008521058 0.010993892 -0.0028000784
0.013278794 0.0054507772 0.0026995128 0.03534084 0.0048997193 0.0010627735 -0.014661582 -0.0043830564
-0.007504063 0.0031352718 -0.0023260724 -0.017222393 0.00021005327 0.00538645 -0.002855553 -0.014076567
-0.010340287 -0.010131072 -0.013982455 0.0047328216 0.0014017161 -0.0047132014 -0.02105297 -0.010706437
-0.018085416 0.005495199 -0.01066403 0.008399833 -0.0040635876 -0.00546467 0.017854791 0.017778877
0.013318087 -0.016459757 -0.0091923345 -0.0012523633 0.0067525823 -0.01684517 0.019839717 0.0036792513
00000000: 14ed d9bb ce39 c03b 5f1d 05ba d1fc 83bb
00000010: 8ec6 dbb9 b653 3b3a 3b2b 08bc 5fc8 b4bb
00000020: ab49 b43b 4ae2 2fbb d5a7 89bb 13b8 d1ba
00000030: b9c0 673a ef72 58bb 79d9 cbbb 6bd6 ac3b
00000040: 9f67 98b9 3431 003b a977 a6bb 20e0 e5ba
00000050: 5dc4 9a3b 9ef9 ea3c 3c33 f63b 37d3 0ebc
00000060: 6357 5bba 24c6 8bbc b425 af3c 3ad7 52bb
00000070: 6c1a d43b fce7 2d3c dee2 3bbb 2430 af37
00000080: bfb3 05bb 9ca3 51bb f579 bf3b 7d93 11bc
00000090: f22e 5bbb df4a 2ebc 0daa ebbb 444b 473c
000000a0: cd27 5dba e45d 153b bdfa 12bb 9eb5 053b
000000b0: aade 25bc b312 aa3a d250 e13b 0aed 7fbb
000000c0: 3731 a13b f0f3 f1bb 4ecd 2a3c 29d0 c4b9
000000d0: 1f2a 86bb a0eb de3b 593b c1bb 3c97 b6ba
000000e0: 4e20 0b39 bbfc ec3a ec71 22bc eb0f 3fbb
000000f0: 9d06 d33a 6192 1dbc ccb0 36bb f96b 0fbb
00000100: f569 feb9 1957 48bc 9512 adbb eefa 343a
00000110: 491a ec3a d151 003c 77fc 043c c51b 7fbb
00000120: 3ad7 643b f1df c13b 0df4 ebba efdc 8f3b
00000130: e8f5 4ebb cd61 97bb f31a 1eba 0482 7d3b
00000140: 7fa9 6fbb a852 b8b9 46f8 5d3c e0cb 6d3b
00000150: f7bb 073b 96b3 ec3a c73a 7cbb ecd4 893a
00000160: d31f 963b 2f3b 1f39 2cc7 74bb b629 47bc
00000170: 4431 b2ba b130 0b3b 3574 84ba 8889 2dbc
00000180: 604c 293c 1e7e 4139 ff6a ef3a 307d 74ba
00000190: aa99 7cbb db0e fc3b 5071 babb 3e62 88bb
000001a0: cc55 89bb d999 f13b ace5 053b 8f13 fd3b
000001b0: 2603 d63b 7d51 e0bb bf2e 1f3a 3083 33bc
000001c0: 8a50 103c f270 393b 2207 a3b9 3618 bbbb
000001d0: 46e0 833c 6635 50bb a8af 70ba 8620 e83a
000001e0: ad22 bd3c 649b a3bc b832 16bc 6a7c 6d3c
000001f0: 4077 cb3c db3b 9c3b f721 3dbc 2367 a73c
00000200: 1373 323c 5aca 95bc c46c 2f3c 64da 8bbc
00000210: e143 49bc 517d 543c 86ca 303d 8097 90bc
00000220: 1aea 503c cdcb 89bb c2a7 1bbb adc6 86b9
00000230: f32c 4abb c142 80bb 6862 9abc fc6d 3c3c
00000240: 9efe 84bc b70f 05bc 60a8 9fbc 362a 3d3c
00000250: a532 e1bb 621d fb3b d289 85bc e032 cb3c
00000260: 1d36 563c 014e 223c 6068 3aba ca18 0b3c
00000270: dd94 10bc a42e 0fbc bc39 a4bc 98ad 023c
00000280: e9a5 16bc 19f0 a9bb 26dc 243b a588 073c
00000290: 8bb4 d63a dfd9 a43b 320b 78bb d294 1bbc
000002a0: a7b1 c2ba f8f2 833c 547e 7f3c bcab c53c
000002b0: 383f 9438 d88d e839 1af6 b83c d099 ebbb
000002c0: 2c0b 483d bbb8 0d3c b6d5 94bb 9e23 b5bc
000002d0: 89cc 37bc 1362 83ba c4fb 6f3c c34a ba3b
000002e0: d576 fbbb ba9a 56b8 95cd 7bbc 44c4 d1bb
000002f0: a006 afbc 8027 123c 5300 143c c959 81bc
00000300: e52c d13c f8d5 afbb 2df5 65bc 224f 71bc
00000310: 9896 4039 e89b 0bbc ba1f 343c 8581 37bb
00000320: 4c8f 593c 6f9c b23b 4fea 303b 8fc1 103d
00000330: d38d a03b c34c 8b3a 2237 70bc be9f 8fbb
00000340: a5e4 f5bb 2279 4d3b 0571 18bb fa15 8dbc
00000350: bf41 5c39 d180 b03b 3b24 3bbb 67a1 66bc
00000360: 4f6a 29bc ccfc 25bc ab16 65bc c915 9b3b
00000370: cab9 b73a 3371 9abb 4777 acbc 0d6a 2fbc
00000380: de27 94bc 1211 b43b 2fb8 2ebc 749f 093c
00000390: d827 85bb f910 b3bb 3644 923c 02a5 913c
000003a0: 1b34 5a3c 9dd6 86bc 729b 16bc 5726 a4ba
000003b0: c444 dd3b e2fe 89bc e786 a23c 981f 713b

101 f4 [20, 120, 1, 1]
0.40326452 -0.09437197 -0.3955811 -0.3608821 0.72794586 -0.043571312 0.2965647 -0.2987413
-0.31070444 -0.050270822 0.45535818 0.20444414 0.60458523 0.5551302 0.13950022 0.42776567
0.19444956 0.03194089 0.31186494 -0.110063255 -0.25916052 -0.17374885 0.20569077 -0.05535656
0.21135652 0.50707155 -0.16978486 -0.5139543 -0.103565015 0.37147468 -0.38155863 0.14853595
-0.22845586 0.058873717 -0.08749786 0.1899391 0.08763232 -0.5362876 -0.17462678 0.48596182
0.14671549 -0.12807833 -0.30016673 0.23564883 -0.10531529 -0.19468084 0.32306173 -0.10886926
-0.27571884 0.33851993 -0.22002941 0.16549635 0.13957115 0.15621635 0.50973636 0.45713738
0.00520428 -0.04933828 -0.113541394 -0.29265714 0.40505204 -0.30982894 0.48836604 -0.057857502
0.16065398 0.19141686 -0.2205961 -0.5025032 -0.45386082 0.051235497 -0.12561357 0.04664735
-0.37737134 -0.52551824 -0.23406954 0.976959 -0.37111047 0.11603686 0.18303752 -0.3533417
-0.6222195 -0.6187914 -0.34677806 -0.40593705 -0.30927786 0.2526911 -0.1277378 -0.11420326
0.03330735 -0.006874919 0.0015512027 0.19332944 0.15309715 0.17933372 0.25467023 -0.14745
-0.045169633 0.2754632 -0.03781126 0.24076448 0.11451513 -0.08510921 -0.23107246 0.4799839
0.31000724 -0.13662714 0.30117106 -0.24048963 0.07116944 -0.30260405 0.22285275 -0.2517318
0.53384227 -0.6035581 0.017281253 -0.0195385 -0.3289211 -0.1701992 -0.438427 -0.18139149
-0.1657424 0.53021413 0.22368403 -0.0695186 0.16216558 0.1953858 -0.016628638 -0.3591003
-0.10279345 -0.057526913 0.29133642 -0.48322013 -0.25904936 -0.5179396 -0.60250264 0.32608548
0.41080597 0.04002835 0.11778879 0.12465394 -0.06383006 0.36094767 -0.30070224 -0.56360626
0.2946847 0.034792043 0.15236299 0.2300693 0.4327078 0.32149038 -0.23758705 0.11674751
-0.22670183 -0.06940016 -0.005653616 -0.013479891 -0.18855 -0.38352868 -0.3090384 0.32328594
-0.38063022 0.3413731 -0.51553696 -0.6216295 0.5842738 -0.060033083 -0.28214437 0.12582538
-0.67819494 0.31213924 0.47595745 0.40133828 -0.19195946 0.18902378 0.010453193 -0.1653038
0.280135 -0.632693 0.49474698 -0.16182332 0.42855722 -0.08925732 0.12285659 0.5413125
0.32877648 -0.24887949 0.10960098 0.6036793 0.14366044 0.7372171 0.37404123 0.035747953
0.6057868 0.36062443 0.30132693 0.23257856 -0.21603572 -0.27254748 0.28917253 -0.07673467
0.27901322 -0.21882568 0.13356364 -0.33844236 0.09995577 0.12658536 0.51949686 0.04283435
-0.27215576 -0.65616095 -0.16290426 -0.5502314 0.19439586 -0.035374817 0.10038773 -0.30850196
0.091891296 -0.28609514 0.5302648 -0.30714616 0.35025635 -0.32898203 -0.32730803 -0.3863341
0.072930194 0.021241415 -0.32332227 -0.31429625 -0.8227248 -0.31886542 0.07299667 0.14530574
-0.35873166 -0.27674672 0.27324852 0.4682395 0.277622 -0.29306817 0.29238504 0.023677556
0.091735005 0.110952616 0.09010999 -0.44300863 0.16724953 0.038021747 -0.21428272 0.05273748
-0.5238726 -0.317786 0.11706506 -0.34679437 0.53995997 -0.054683603 0.24745324 0.24965987
00000000: b078 ce3e 1746 c1bd 9b89 cabe 8ac5 b8be
00000010: a95a 3a3f d577 32bd 54d7 973e 9ff4 98be
00000020: a714 9fbe c7e8 4dbd b524 e93e ce59 513e
00000030: 19c6 1a3f 031d 0e3f 25d9 0e3e 1a04 db3e
00000040: c91d 473e 73d4 023d c3ac 9f3e d868 e1bd
00000050: b0b0 84be 38eb 31be 9aa0 523e 8fbd 62bd
00000060: d86d 583e 71cf 013f 15dc 2dbe 8292 03bf
00000070: e519 d4bd ee31 be3e a75b c3be cf19 183e
00000080: 55f0 69be 9125 713d 1432 b3bd 657f 423e
00000090: 9378 b33d 254a 09bf 5dd1 32be fdcf f83e
000000a0: 963c 163e f726 03be 74af 99be ed4d 713e
000000b0: 8baf d7bd 6a5a 47be 5968 a53e d9f6 debd
000000c0: 052b 8dbe 7c52 ad3e 644f 61be e077 293e
000000d0: bdeb 0e3e 2ef7 1f3e 157e 023f e90d ea3e
000000e0: aa88 aa3b f016 4abd 6488 e8bd 28d7 95be
000000f0: fb62 cf3e e6a1 9ebe 1d0b fa3e fdfb 6cbd
00000100: 7a82 243e c802 443e f2e3 61be 0da4 00bf
00000110: 7260 e8be 50dc 513d d8a0 00be 4b11 3f3d
00000120: d136 c1be 5d88 06bf edaf 6fbe fc19 7a3f
00000130: 3102 bebe bca4 ed3d 306e 3b3e 34e9 b4be
00000140: c749 1fbf 1d69 1ebf e58c b1be fbd6 cfbe
00000150: ab59 9ebe ba60 813e b3cd 02be 66e3 e9bd
00000160: 4a6d 083d 0047 e1bb ba51 cb3a 27f8 453e
00000170: 80c5 1c3e 42a3 373e 2364 823e 22fd 16be
00000180: cb03 39bd 8309 8d3e fbdf 1abd f78a 763e
00000190: e986 ea3d bd4d aebd 429e 6cbe 73c0 f53e
000001a0: 45b9 9e3e fce7 0bbe 1833 9a3e ea42 76be
000001b0: 49c1 913d ebee 9abe 8333 643e fee2 80be
000001c0: e3a9 083f c982 1abf 6a91 8d3c 340f a0bc
000001d0: 5968 a8be b348 2ebe 8179 e0be b1be 39be
000001e0: 60b8 29be 1dbc 073f 6d0d 653e c55f 8ebd
000001f0: bc0e 263e 3713 483e c838 88bc ffdb b7be
00000200: 5f85 d2bd 57a1 6bbd 0c2a 953e a168 f7be
00000210: 1ea2 84be b197 04bf 9d3d 1abf adf4 a63e
00000220: 2955 d23e c4f4 233d 403b f13d 914a ff3d
00000230: 56b9 82bd 22ce b83e a5f5 99be 8048 10bf
00000240: eae0 963e 1a82 0e3d 0b05 1c3e 4997 6b3e
00000250: e08b dd3e 639a a43e 054a 73be 5219 ef3d
00000260: 8624 68be ac21 8ebd f841 b9bb c3da 5cbc
00000270: 4013 41be df5d c4be 483a 9ebe bc85 a53e
00000280: f7e1 c2be 74c8 ae3e 3bfa 03bf 1c23 1fbf
00000290: f892 153f 40e5 75bd 3a75 90be 5ed8 003e
000002a0: 2f9e 2dbf b7d0 9f3e b2b0 f33e 367c cd3e
000002b0: 0591 44be 738f 413e df43 2b3c 6645 29be
000002c0: db6d 8f3e 2bf8 21bf 7a4f fd3e 03b5 25be
000002d0: da6b db3e 8bcc b6bd 3c9c fb3d 7593 0a3f
000002e0: 6455 a83e 44da 7ebe 7b76 e03d ba8a 1a3f
000002f0: b91b 133e 43ba 3c3f 5582 bf3e 726c 123d
00000300: d814 1b3f c4a3 b83e 8647 9a3e 1329 6e3e
00000310: 7838 5dbe 588b 8bbe 6c0e 943e 1127 9dbd
00000320: d2da 8e3e d713 60be e8c4 083e 5148 adbe
00000330: 9cb5 cc3d 989f 013e bffd 043f 1273 2f3d
00000340: 0058 8bbe 2afa 27bf 60d0 26be f7db 0cbf
00000350: b50f 473e 2fe5 10bd 1598 cd3d f8f3 9dbe
00000360: 8131 bc3d 107b 92be 6fbf 073f 4342 9dbe
00000370: cd54 b33e 5570 a8be eb94 a7be 95cd c5be
00000380: 6d5c 953d 7a02 ae3c 7f8a a5be 70eb a0be
00000390: 189e 52bf 5442 a3be 477f 953d 07cb 143e
000003a0: adab b7be bfb1 8dbe 3be7 8b3e 16bd ef3e
000003b0: 7924 8e3e 080d 96be 7eb3 953e 6ff7 c13c
000003c0: 90df bb3d 203b e33d 968b b83d 07d2 e2be
000003d0: 7643 2b3e b1bc 1b3d ee6c 5bbe 4103 583d
000003e0: 841c 06bf d9b4 a2be cebf ef3d 088f b1be
000003f0: d13a 0a3f eafb 5fbd 6264 7d3e d6a6 7f3e

102 f4 [20, 120, 1, 1]
0.74076444 0.2827656 -0.029301 -0.024394307 0.49804315 0.001840635 -0.4048056 -0.07900951
-0.15750463 0.20095217 0.12865795 0.31630427 0.038067646 0.2011408 -0.12649025 -0.3469879
0.055481605 0.0033382666 -0.52009773 -0.70699364 -0.003746613 -0.28024676 0.11624331 -0.11656554
0.61537415 0.47345304 0.010884338 -0.189424 -0.29025996 -0.36558726 -0.26260325 0.031345718
-0.40030324 0.36549473 0.038957573 0.03784871 0.4136474 -0.025881054 0.14637011 -0.08292972
-0.13867968 0.13519979 -0.12640505 0.3544365 -0.66924286 -0.444676 -0.12821054 -0.8495957
0.20331298 -0.050243836 -0.044575177 -0.2596438 0.57384235 0.1892843 -0.041859917 0.7513987
0.4662502 -0.220192 0.4994759 -0.15262721 0.093641646 -0.2986504 0.322159 0.08635169
0.054637056 0.39190996 0.2830317 0.0904544 -0.39541245 -0.121161394 0.033541024 0.11980944
0.31929457 -0.07577266 0.051404685 -0.23082104 0.41897914 -0.08187645 -0.024144843 0.24955057
0.4638035 -0.034989413 0.2647666 0.3200305 -0.08397359 -0.22427297 0.3035154 -0.37591815
-0.40546024 -0.26307812 -0.16607267 -0.25403273 0.6322662 -0.06647347 -0.051488698 0.21499144
-0.8609715 0.4876826 -0.0023308026 -0.004123107 -0.81148976 0.05807472 -0.0941398 -0.2710081
0.44663286 -0.32550433 0.104461655 0.38213202 -0.13851197 -0.0030031237 -0.092948966 0.4983633
-0.26699108 -0.18307449 0.10724082 0.16527523 0.28952152 -0.20376617 -0.1097618 0.021308608
-0.110169895 -0.49217504 -0.32956284 0.31673726 -0.3090796 0.02163155 0.0644094 0.29363555
-0.2903752 0.2571754 0.519532 -0.26966867 0.051192656 -1.0329368 0.39149502 0.11815211
0.16175385 -0.4839571 -0.20783862 0.425666 0.46536887 0.1449628 -0.0742546 0.42925745
0.036912985 -0.59984404 -0.12413316 0.17123245 0.4536132 0.31915626 0.14589305 -0.4898083
0.14385815 0.09572874 0.32970914 -0.08927713 0.06452898 0.07716338 0.7085578 -0.4901436
-0.09111443 -0.4187661 0.14323197 0.0020958516 -0.38929826 0.23594368 0.10145145 -0.34148017
-0.41813073 -0.40290093 -0.043054793 0.21019816 -0.5976173 -0.22554046 0.09944026 -0.14396223
-0.14107859 -0.08148901 -0.018372042 -0.9963624 0.12132664 0.17889126 -0.23974892 -0.3770753
0.59167695 -0.20930555 0.017680883 -0.105809964 -0.17966862 0.010332484 -0.49525526 0.5711228
0.22965069 -0.25922132 0.13236347 0.75586265 -0.07687292 0.38891506 0.3357406 -0.1523361
-0.034094818 0.17284662 0.1610891 -0.15837926 -0.31876534 0.45482564 -0.3743389 -0.25215495
-0.0926367 -0.18959938 -0.68077236 -0.41096756 -0.07768526 -0.033201266 0.3868897 -0.49597627
0.52785194 0.09644715 0.12777373 -0.18054464 -0.72012264 0.025224337 -0.28361332 0.37555864
0.5417103 0.5562333 -0.39317372 -0.6568084 0.36582884 0.8060612 -0.3795442 0.37995413
-0.5064427 -0.008385545 -0.17128192 0.018299812 -0.22098246 -0.19344841 -0.1705145 -0.2559861
0.101947784 0.7193084 0.5696336 0.0963652 -0.60944104 0.25059125 0.25653285 0.10114443
0.415979 0.05988991 -0.2285627 0.18237951 -0.39814153 0.42185044 -0.5435087 -0.65424347
00000000: bda2 3d3f a7c6 903e a708 f0bc 92d6 c7bc
00000010: 83ff fe3e 7641 f13a ae42 cfbe bdcf a1bd
00000020: e548 21be 68c6 4d3e e9be 033e a2f2 a13e
00000030: d2ec 1b3d dbf7 4d3e a986 01be 66a8 b1be
00000040: ae40 633d d2c6 5a3b 2025 05bf 89fd 34bf
00000050: bc89 75bb 817c 8fbe f910 ee3d eab9 eebd
00000060: 2989 1d3f 7068 f23e 3954 323c 5df8 41be
00000070: f49c 94be 412e bbbe ef73 86be 5e64 003d
00000080: 8cf4 ccbe 2022 bb3e fa91 1f3d 4007 1b3d
00000090: 98c9 d33e 8104 d4bc 0ce2 153e 0fd7 a9bd
000000a0: 0c02 0ebe d071 0a3e 5370 01be b378 b53e
000000b0: 8053 2bbf 93ac e3be a049 03be 1b7f 59bf
000000c0: 4731 503e 7bcc 4dbd 7694 36bd 08f0 84be
000000d0: 55e7 123f bed3 413e 4e75 2bbd aa5b 403f
000000e0: 59b8 ee3e 037a 61be 4ebb ff3e 4f4a 1cbe
000000f0: 31c7 bf3d b5e8 98be 06f2 a43e 28d9 b03d
00000100: 1bcb 5f3d 6ca8 c83e 88e9 903e 2840 b93d
00000110: 8073 cabe 7723 f8bd 5062 093d a75e f53d
00000120: 947a a33e b22e 9bbd b88d 523d 5a5c 6cbe
00000130: 6f84 d63e d7ae a7bd 68cb c5bc 2f8a 7f3e
00000140: a777 ed3e 0f51 0fbd 7d8f 873e 0adb a33e
00000150: 58fa abbd d0a7 65be 5f66 9b3e 5878 c0be
00000160: 7c98 cfbe 2db2 86be f40e 2abe 9410 82be
00000170: 33dc 213f 3e23 88bd d0e5 52bd b726 5c3e
00000180: a168 5cbf 89b1 f93e 61c0 18bb 211b 87bb
00000190: cbbd 4fbf c2df 6d3d 5ecc c0bd 93c1 8abe
000001a0: 10ad e43e 81a8 a6be feef d53d cfa6 c33e
000001b0: 15d6 0dbe 0ed0 44bb 075c bebd 7929 ff3e
000001c0: 0eb3 88be e177 3bbe 13a1 db3d e93d 293e
000001d0: 2a3c 943e 14a8 50be cbca e0bd 648f ae3c
000001e0: c1a0 e1bd 5efe fbbe 76bc a8be 632b a23e
000001f0: ae3f 9ebe a634 b13c 13e9 833d 6657 963e
00000200: 0fac 94be 7eac 833e 0d00 053f 0312 8abe
00000210: 64af 513d 4637 84bf 0972 c83e bcf9 f13d
00000220: cda2 253e 3ac9 f7be a6d3 54be e5f0 d93e
00000230: d444 ee3e 2171 143e cc12 98bd a2c7 db3e
00000240: 1232 173d 618f 19bf 8739 febd 8f57 2f3e
00000250: fd3f e83e 7368 a33e fd64 153e 27c8 fabe
00000260: 8d4f 133e 6e0d c43d a3cf a83e eed6 b6bd
00000270: c527 843d d607 9e3d 0b64 353f 1af4 fabe
00000280: 349a babd 8368 d6be 67ab 123e 8e5a 093b
00000290: 1a52 c7be 389b 713e c7c5 cf3d 7dd6 aebe
000002a0: 3b15 d6be 0849 cebe 395a 30bd 303e 573e
000002b0: 73fd 18bf 14f4 66be 56a7 cb3d d66a 13be
000002c0: e876 10be b6e3 a6bd f780 96bc 9b11 7fbf
000002d0: 1a7a f83d 452f 373e be80 75be 0410 c1be
000002e0: 2478 173f 3254 56be 80d7 903c e5b2 d8bd
000002f0: 0dfb 37be 9449 293c 1992 fdbe 1b35 123f
00000300: 8d29 6b3e a8b8 84be 4a8a 073e 3780 413f
00000310: 8d6f 9dbd e01f c73e 31e6 ab3e fffd 1bbe
00000320: 02a7 0bbd b4fe 303e 8bf4 243e 2c2e 22be
00000330: 3635 a3be e8de e83e 59a9 bfbe 741a 81be
00000340: 4fb8 bdbd 5726 42be 1947 2ebf 576a d2be
00000350: 7319 9fbd 0dfe 07bd 6816 c63e 9af0 fdbe
00000360: 4e21 073f 1586 c53d 1ed7 023e b2e0 38be
00000370: f559 38bf 45a3 ce3c c435 91be 3949 c03e
00000380: 87ad 0a3f 4e65 0e3f 114e c9be 9824 28bf
00000390: eb4d bb3e 075a 4e3f 9e53 c2be 5989 c23e
000003a0: 3ba6 01bf 8663 09bc 8764 2fbe 7de9 953c
000003b0: 3a49 62be 5717 46be 5a9b 2ebe 9c10 83be
000003c0: 00ca d03d 9824 383f 82d3 113f 1e5b c53d
000003d0: 5404 1cbf 7f4d 803e 4658 833e d024 cf3d
000003e0: 33fb d43e 1f4f 753d 570c 6abe b2c1 3a3e
000003f0: 35d9 cbbe c8fc d73e 6323 0bbf 807c 27bf

103 f4 [40]
0.983096 0.972962 0.96273255 0.9650497 0.9571493 0.95916986 0.9857268 0.98602116
0.99352217 0.9896391 0.95653254 0.9581837 0.964414 0.9747907 0.95299846 0.9530341
0.99745804 0.9491289 0.9508522 0.9761045 0.9715089 1.029896 0.9613807 1.0081711
1.0161711 1.0128016 0.99328405 0.99287385 0.9664799 1.0324423 1.0308987 0.9537409
0.963911 0.98581225 0.96825725 0.9971903 1.0083083 1.0256042 0.9605652 0.96160877
00000000: 2eac 7b3f 0a14 793f a475 763f 7f0d 773f
00000010: bd07 753f 288c 753f 9758 7c3f e26b 7c3f
00000020: 7857 7e3f fd58 7d3f 51df 743f 874b 753f
00000030: d6e3 763f e28b 793f b5f7 733f 0bfa 733f
00000040: 6959 7f3f 1dfa 723f 0d6b 733f fce1 793f
00000050: cfb4 783f a2d3 833f 0c1d 763f c00b 813f
00000060: e511 823f 7ca3 813f dd47 7e3f fb2c 7e3f
00000070: 3a6b 773f 1227 843f 7df4 833f 5d28 743f
00000080: dfc2 763f 315e 7c3f b5df 773f dd47 7f3f
00000090: 3f10 813f 0047 833f 9ae7 753f fe2b 763f

104 f4 [40]
1.4040379e-09 -2.2737671e-10 2.7438383e-09 -1.4523449e-08 -6.3921696e-10 -5.916189e-10 1.3940587e-08 -1.1343054e-08
-1.4534625e-10 9.978937e-09 3.6267243e-09 -2.2913371e-10 2.0062778e-09 -9.821594e-10 2.164194e-09 1.8953357e-09
4.0631605e-09 -7.7509327e-10 -1.2837994e-08 9.934055e-09 -8.163068e-09 -4.1161023e-08 -1.61824e-10 -1.762863e-08
1.0754698e-08 3.1507004e-09 -7.496895e-09 1.9379651e-09 3.6425085e-09 -1.9134108e-08 -2.043588e-08 2.437661e-09
-2.3223796e-08 1.6208586e-08 -1.7772198e-08 5.2945887e-10 -9.761126e-09 -4.6738573e-09 7.446488e-09 -5.588213e-09
00000000: 31f8 c030 db00 7aaf 1d8e 3c31 ce82 79b2
00000010: e5b4 2fb0 7b9f 22b0 5a7f 6f32 47df 42b2
00000020: 55cf 1faf d46f 2b32 023a 7931 68ef 7baf
00000030: d0de 0931 a9fc 86b0 e7b8 1431 193f 0231
00000040: f09b 8b31 570e 55b0 188e 5cb2 70aa 2a32
00000050: 8e3d 0cb2 06c9 30b3 68ed 31af c46d 97b2
00000060: a9c3 3832 b583 5831 b1cb 00b2 0b2d 0531
00000070: b04f 7a31 595c a4b2 fa8a afb2 c983 2731
00000080: ab7d c7b2 0f3b 8b32 7aa9 98b2 5b89 1130
00000090: e3b1 27b2 af97 a0b1 00dc ff31 7102 c0b1

105 f4 [40]
0.0270948 0.064687386 -0.14184333 0.13446328 -0.07444664 0.14174357 -0.26032254 0.5484661
-0.051214974 0.067440785 -0.26235256 -0.29046515 0.1757895 0.16978925 -0.18723819 0.11395084
-0.43822762 -0.1776822 0.47763065 0.101046465 0.15015955 -0.30379206 0.058703538 0.082305685
0.45652342 -0.19859332 -0.024316426 0.08592931 -0.073871456 0.08145458 -0.16897987 0.44405508
-0.35440835 -0.4716992 0.14218369 -0.5856771 -0.16030848 0.27395773 0.14062524 0.2450178
00000000: eaf5 dd3c d27a 843d 613f 11be beb0 093e
00000010: 7b77 98bd 3a25 113e ff48 85be 4668 0c3f
00000020: cbc6 51bd 651e 8a3d 1353 86be d9b7 94be
00000030: 2a02 343e 3cdd 2d3e 5ebb 3fbe 0f5f e93d
00000040: 5f5f e0be 53f2 35be 018c f43e 73f1 ce3d
00000050: 6dc3 193e a28a 9bbe 1f73 703d e28f a83d
00000060: 70bd e93e 0c5c 4bbe 3e33 c7bc b5fb af3d
00000070: eb49 97bd a9d1 a63d 0f09 2dbe 305b e33e
00000080: 0375 b5be 8f82 f1be 9a98 113e efee 15bf
00000090: e827 24be 3044 8c3e 1000 103e f2e5 7a3e

106 f4 [40]
1.153086 1.1104355 0.85448796 1.5592302 1.5337509 0.96403307 1.1333274 0.8577448
1.3966765 1.3096508 1.090231 0.9966378 1.0696561 1.3239716 0.9194483 0.96188575
0.9263546 1.0512977 1.8469844 0.7704553 1.1259602 1.5224651 0.83051145 1.0837119
1.1653379 0.60469466 1.04437 0.93568796 1.3741276 0.81821835 0.93435836 0.9889819
0.6929315 1.2195605 0.838954 0.8757539 0.9705943 0.7992435 0.9989425 0.83795524
00000000: 5298 933f c022 8e3f b9bf 5a3f db94 c73f
00000010: f351 c43f dfca 763f df10 913f 2a95 5b3f
00000020: 4cc6 b23f a3a2 a73f b08c 8b3f a823 7f3f
00000030: 7eea 883f e777 a93f f760 6b3f 253e 763f
00000040: 9325 6d3f ec90 863f fc69 ec3f 8f3c 453f
00000050: 771f 903f 23e0 c23f 669c 543f 12b7 8a3f
00000060: cb29 953f 45cd 1a3f ebad 853f 3f89 6f3f
00000070: 6ae3 af3f c276 513f 1c32 6f3f eb2d 7d3f
00000080: f563 313f 8f1a 9c3f b0c5 563f 6831 603f
00000090: de78 783f 399b 4c3f b2ba 7f3f 3c84 563f

108 f4 [120, 20, 1, 1]
0.023153258 -0.027959023 0.0315703 0.13356784 -0.07492931 -0.029364282 0.04490833 0.13042927
-0.08893808 0.14071587 0.056893766 0.046192393 -0.0065712035 0.06460876 -0.19541362 -0.110870734
-0.089056134 -0.10680449 0.09062317 -0.0018912021 0.04062814 0.16793181 0.028464071 0.11076237
-0.19239998 -0.10585781 -0.03863939 0.010577629 -0.06973873 0.082423925 0.11236476 0.08890663
-0.08799993 0.19371676 0.05340023 0.0058602397 -0.07684831 0.14143136 -0.08941663 -0.0048532654
0.07928433 -0.12251269 -0.046608746 0.055430673 -0.029948391 -0.025043638 -0.15591669 0.10590889
-0.02297844 -0.18585351 -0.2040595 0.10983897 0.1487538 0.14817369 0.05982371 -0.015081214
-0.21656825 0.020968571 -0.04425183 -0.21729712 -0.0547961 0.06201907 -0.028808532 -0.07726987
-0.11814817 -0.001333795 0.04166733 0.14522733 0.10671538 -0.062380947 -0.20314373 0.06762737
-0.08706247 0.15317658 -0.05016755 0.0269656 -0.17108978 0.09247814 0.04473425 0.047545504
-0.054847702 -0.008031969 -0.14167957 -0.06996242 0.02687037 0.041251976 -0.05966944 -0.07756147
0.091585524 0.12852362 0.050299246 -0.18808958 -0.019252371 0.027291756 0.03779661 -0.009053468
-0.07508035 0.14879581 -0.039315503 -0.33135584 -0.055453125 -0.048095167 -0.1551991 0.023237912
0.30306223 0.12937212 0.11918365 0.04596123 -0.04620159 0.055015013 -0.022525432 0.109676175
-0.06371298 -0.107958674 0.092943065 0.16677973 0.005451234 -0.049784195 -0.010087254 -0.21049014
-0.11736179 0.24420932 0.024266664 0.23369794 -0.0551739 -0.01589969 -0.17704974 0.022994779
-0.16634913 0.07134414 -0.13592589 0.072654314 -0.24025188 0.15245533 0.0382416 -0.024102965
-0.15074563 -0.14568356 0.14659312 0.08441903 -0.10086079 0.24541561 -0.10345211 -0.0186037
-0.04048206 0.18066616 0.022023208 -0.13150796 0.139837 0.07155612 0.024299236 -0.10980864
-0.101608746 -0.07039881 -0.16436759 0.0003190608 0.077149846 -0.018514477 0.020817043 -0.081514955
0.03659711 0.09394089 -0.113264546 0.18637523 -0.1043898 -0.0256994 -0.059634868 0.015694046
0.16164163 -0.030751614 -0.21296977 -0.11375741 -0.096746385 -0.062332273 0.088043645 0.12572806
0.023501767 0.19473436 -0.034515217 0.04411736 -0.0009214559 0.011590414 0.0501619 0.017383255
-0.103112966 0.06797703 0.0021567065 -0.12152962 0.03980006 -0.20601702 0.0062307613 0.17436025
-0.21950983 0.04853975 0.17329007 0.06275134 -0.09197856 0.016455185 -0.3118134 -0.042072278
0.08659135 -0.05304912 0.042654365 -0.06624123 -0.011415856 0.090289 -0.11908622 -0.07247561
0.019143805 -0.03123763 -0.028193416 0.019197764 0.009286786 -0.1562156 -0.26163355 -0.13401018
-0.25699842 -0.048055902 -0.12750565 0.056623176 -0.08573947 0.06392999 -0.0136552 -0.25800186
0.048574075 0.092637375 0.063611194 -0.12727863 -0.08985102 -0.07615197 0.12587878 0.14364263
-0.289951 -0.039141998 0.18861003 -0.087408066 0.11340527 0.018829003 -0.101257436 -0.10601625
-0.21864113 -0.12417823 -0.076372415 -0.03636233 -0.21438707 -0.00788041 0.050892927 0.049497265
0.0042592515 -0.09257144 -0.08645487 -0.02632479 -0.12987523 0.178128 0.07560561 -0.06851792
00000000: e7ab bd3c 520a e5bc dc4f 013d 02c6 083e
00000010: 8a74 99bd 5d8d f0bc ccf1 373d 408f 053e
00000020: 2b25 b6bd d217 103e 7009 693d 3c34 3d3d
00000030: 4053 d7bb 9951 843d 821a 48be 3210 e3bd
00000040: 1063 b6bd 50bc dabd a498 b93d 36e2 f7ba
00000050: b169 263d 51f6 2b3e 7c2d e93c 62d7 e23d
00000060: 8004 45be fbcb d8bd 5644 1ebd cb4d 2d3c
00000070: 2ed3 8ebd e0cd a83d 7f1f e63d ae14 b63d
00000080: 4f39 b4bd b05d 463e 33ba 5a3d 4107 c03b
00000090: a662 9dbd 62d3 103e 1120 b7bd 2408 9fbb
000000a0: d35f a23d efe7 fabd d0e8 3ebd 460b 633d
000000b0: 5456 f5bc 5128 cdbc a0a8 1fbe c3e6 d83d
000000c0: 483d bcbc 6250 3ebe f9f4 50be 41f3 e03d
000000d0: eb52 183e d8ba 173e b509 753d 3217 77bc
000000e0: 11c4 5dbe 48c6 ab3c 6841 35bd 2383 5ebe
000000f0: e071 60bd b507 7e3d dfff ebbc aa3f 9ebd
00000100: abf7 f1bd bcd2 aeba 5dab 2a3d 79b6 143e
00000110: 988d da3d 2a83 7fbd e904 50be 3880 8a3d
00000120: cf4d b2bd 52da 1c3e 7d7c 4dbd f6e6 dc3c
00000130: 2932 2fbe 2e65 bd3d 433b 373d 13bf 423d
00000140: fca7 60bd 8598 03bc 7314 11be 7548 8fbd
00000150: 401f dc3c d5f7 283d f167 74bd 8cd8 9ebd
00000160: 3191 bb3d b29b 033e 9506 4e3d 8e9a 40be
00000170: 26b7 9dbc f692 df3c 9ed0 1a3d ff54 14bc
00000180: bac3 99bd ee5d 183e 4b09 21bd 79a7 a9be
00000190: d122 63bd 70ff 44bd 83ec 1ebe 6f5d be3c
000001a0: f92a 9b3e 207a 043e 8f16 f43d d841 3c3d
000001b0: e13d 3dbd 6c57 613d 4187 b8bc e79d e03d
000001c0: f37b 82bd 7019 ddbd ef58 be3d 4ec8 2a3e
000001d0: 44a0 b23b 83ea 4bbd 0345 25bc ba8a 57be
000001e0: 615b f0bd 0212 7a3e e2ca c63c 834e 6f3e
000001f0: 07fe 61bd 1140 82bc 874c 35be 8c5f bc3c
00000200: 6d57 2abe e01c 923d 2830 0bbe c9cb 943d
00000210: 9704 76be 401d 1c3e 39a3 1c3d 9573 c5bc
00000220: 105d 1abe 122e 15be 821c 163e e2e3 ac3d
00000230: 1a90 cebd 3b4e 7b3e b3de d3bd c966 98bc
00000240: 84d0 25bd 8d00 393e 046a b43c 06aa 06be
00000250: 6e31 0f3e 048c 923d 310f c73c 5ae3 e0bd
00000260: 3f18 d0bd 402d 90bd fa4f 28be 9e47 a739
00000270: bd00 9e3d acab 97bc 8188 aa3c 50f1 a6bd
00000280: dae6 153d 1564 c03d 3ef7 e7bd 26d9 3e3e
00000290: 52ca d5bd 8c87 d2bc b143 74bd cd90 803c
000002a0: 6285 253e cfea fbbc bf14 5abe a5f9 e8bd
000002b0: f822 c6bd 2050 7fbd 3a50 b43d dbbe 003e
000002c0: c786 c03c 7268 473e d45f 0dbd 68b4 343d
000002d0: dc8d 71ba b8e5 3d3c 9176 4d3d 5467 8e3c
000002e0: e42c d3bd 8b37 8b3d 8857 0d3b 85e4 f8bd
000002f0: 6305 233d 20f6 52be 6a2b cc3b 7e8b 323e
00000300: 2fc7 60be 9ed1 463d f472 313e c683 803d
00000310: 415f bcbd 06cd 863c 02a6 9fbe fb53 2cbd
00000320: ce56 b13d 094a 59bd 58b6 2e3d 7ba9 87bd
00000330: 9209 3bbc 70e9 b83d 7ae3 f3bd 186e 94bd
00000340: 78d3 9c3c 0fe6 ffbc e1f5 e6bc a144 9d3c
00000350: 9b27 183c fbf6 1fbe d5f4 85be f739 09be
00000360: 4c95 83be 44d6 44bd d790 02be b4ed 673d
00000370: 2d98 afbd baed 823d 0fba 5fbc d218 84be
00000380: 9cf5 463d aab8 bd3d 9646 823d 5455 02be
00000390: d003 b8bd 90f5 9bbd 5ee6 003e 0e17 133e
000003a0: 7574 94be 5c53 20bd fd22 413e 0003 b3bd
000003b0: 0641 e83d 483f 9a3c 0f60 cfbd 0c1f d9bd
000003c0: 76e3 5fbe 2851 febd 2469 9cbd abf0 14bd
000003d0: 4988 5bbe d61c 01bc 1a75 503d a5bd 4a3d
000003e0: 3191 8b3b 1896 bdbd 400f b1bd 16a7 d7bc
000003f0: 03fe 04be 3067 363e 1dd7 9a3d 2053 8cbd

109 f4 [120, 20, 1, 1]
0.166461 0.24876603 -0.06909514 -0.06452559 -0.027558884 -0.040348914 0.07790058 -0.014499232
0.18113492 0.18037474 0.07489416 -0.060719464 0.03825233 0.0018070538 0.015960764 -0.03875752
0.08831408 0.07548787 -0.119347796 0.105602056 -0.21403874 -0.063765 0.1592004 0.08301797
0.12896027 -0.07845443 -0.12890331 -0.14837459 0.21784317 0.14326824 -0.019140374 -0.022323962
-0.094422735 -0.033937566 0.15062597 -0.11476654 -0.017637907 0.12179409 0.10575877 0.020109857
0.15252177 0.20217052 0.11513512 -0.045970988 0.15136057 0.08381583 0.23426677 0.13138127
0.02049546 -0.083163865 0.093034685 0.027402392 0.19490512 0.013705367 0.26297048 -0.0027227462
-0.039745614 0.055152982 -0.07409263 -0.052861243 0.08770902 0.1868086 0.20996226 0.06482828
0.32460985 -0.1962367 -0.011460507 0.10931885 0.009475619 0.06492609 0.07544988 0.10436078
0.14235243 0.1798646 0.121501796 0.020145748 -0.21618018 0.01406247 0.23138948 0.17653018
-0.14339402 0.1924856 0.13857366 0.20997779 -0.087972976 0.1912816 0.08921703 -0.09924187
-0.14387168 -0.063699976 -0.008708986 -0.23998669 0.012147194 -0.066719905 0.16825262 0.06906462
-0.14456968 0.079082966 -0.13651522 -0.21808665 -0.19579485 -0.03228729 0.09009545 0.1508098
-0.020569062 -0.10070346 -0.010145106 -0.13744842 -0.08761967 -0.124076046 -0.01038229 0.094503604
-0.021605335 0.142261 -0.06765339 -0.051161155 -0.124105126 0.27097002 -0.05568762 -0.040357944
0.19203778 -0.24700071 0.25853366 0.116935596 -0.02733786 0.04808768 0.09684445 0.073506825
-0.18047859 0.08939197 -0.06938684 0.09614315 -0.1665125 0.29021537 -0.009607655 0.09594716
0.08227143 0.15952203 -0.014567249 -0.2761772 0.04388947 0.054878045 -0.14794585 -0.12657996
-0.021509133 0.10126672 -0.2488761 -0.045014534 0.08349617 0.03258806 -0.16282131 0.020275494
-0.10147167 -0.01021862 -0.10019283 0.06098991 -0.053623524 0.14635135 -0.053256996 -0.06506779
0.06280516 0.0069999844 0.069786385 -0.08939947 -0.06716275 0.23296407 0.068405375 0.06893934
-0.09448148 -0.057183225 0.027542377 -0.013551595 0.07681577 -0.11273975 -0.0963001 -0.09157602
0.06456275 0.1582181 -0.0417691 -0.1747928 -0.15954225 0.16259407 0.067002505 0.11879491
-0.03859554 -0.0010246745 0.16915055 0.034945406 -0.036605474 -0.1718824 -0.094470695 -0.12157968
0.018664535 0.013388568 -0.0035153911 0.05048824 -0.13666803 -0.26508218 0.30356812 -0.25784153
0.16174291 0.028719632 -0.15242693 -0.12326715 -0.12082499 0.039377596 0.17619142 -0.11447505
0.093218155 0.07915064 0.038341515 -0.08152511 -0.08413906 0.0122120865 -0.05161031 0.16669679
0.015597252 0.059200335 -0.21173619 -0.06364888 -0.31242436 -0.022190748 0.1024472 0.06461206
0.11006577 -0.049622986 -0.19482249 -0.0018712562 -0.1372787 0.07252011 -0.018647013 -0.0074180886
-0.07588846 -0.09297719 0.018419677 0.14434363 0.06958327 -0.01299027 0.1317549 0.017309224
0.06496636 -0.02921289 -0.07545209 -0.015002329 -0.08072236 0.025862796 0.05303656 0.10486672
-0.08109645 0.1390515 0.021029498 -0.1781291 -0.050588295 0.10628291 -0.35713977 0.16410124
00000000: c174 2a3e 86bc 7e3e c181 8dbd fe25 84bd
00000010: 2bc3 e1bc e744 25bd 578a 9f3d 308e 6dbc
00000020: 6f7b 393e 28b4 383e 1c62 993d f9b4 78bd
00000030: 7aae 1c3d aada ec3a 26c0 823c 35c0 1ebd
00000040: 03de b43d 6299 9a3d 9e6c f4bd e445 d83d
00000050: f92c 5bbe 3997 82bd 6e05 233e 5305 aa3d
00000060: 290e 043e b7ac a0bd 3bff 03be 82ef 17be
00000070: 4812 5f3e e9b4 123e 46cc 9cbc bee0 b6bc
00000080: b560 c1bd 1e02 0bbd b23d 1a3e b80a ebbd
00000090: 5f7d 90bc 2e6f f93d 0e98 d83d 6dbd a43c
000000a0: ab2e 1c3e ca05 4f3e f6cb eb3d 134c 3cbd
000000b0: 44fe 1a3e a2a7 ab3d a1e3 6f3e d088 063e
000000c0: 18e6 a73c d151 aabd f888 be3d fb7a e03c
000000d0: 3595 473e 7a8c 603c 11a4 863e 1a70 32bb
000000e0: 4ccc 22bd 18e8 613d e0bd 97bd 0885 58bd
000000f0: c9a0 b33d c14a 3f3e 5900 573e b0c4 843d
00000100: 4333 a63e 46f2 48be dac4 3bbc 90e2 df3d
00000110: a03f 1b3c f8f7 843d 7785 9a3d 1bbb d53d
00000120: d6c4 113e 6d2e 383e efd5 f83d b208 a53c
00000130: 565e 5dbe 4666 663c 5df1 6c3e 54c4 343e
00000140: e2d5 12be f21a 453e 41e6 0d3e 6b04 573e
00000150: 2d2b b4bd 53df 433e 6bb7 b63d 523f cbbd
00000160: 1953 13be 2275 82bd 23b0 0ebc 12bf 75be
00000170: 0605 473c 72a4 88bd 6a4a 2c3e c071 8d3d
00000180: 130a 14be 40f6 a13d a5ca 0bbe 1b52 5fbe
00000190: 727e 48be ad3f 04bd f783 b83d e26d 1a3e
000001a0: 7380 a8bc 9e3d cebd a937 26bc 47bf 0cbe
000001b0: f171 b3bd 951b febd 7b1a 2abc 1b8b c13d
000001c0: acfd b0bc deac 113e dc8d 8abd 5c8e 51bd
000001d0: d42a febd 95bc 8a3e b418 64bd 5f4e 25bd
000001e0: 8da5 443e c1ed 7cbe 865e 843e ee7b ef3d
000001f0: a6f3 dfbc 96f7 443d 6256 c63d bf8a 963d
00000200: 61cf 38be 2313 b73d b01a 8ebd b3e6 c43d
00000210: 4182 2abe 1c97 943e 6d69 1dbc f27f c43d
00000220: ec7d a83d be59 233e 79ab 6ebc 1967 8dbe
00000230: 72c5 333d cdc7 603d 1e7f 17be 2d9e 01be
00000240: ec33 b0bc ed64 cf3d 60d9 7ebe 2961 38bd
00000250: 0a00 ab3d 0f7b 053d a1ba 26be cb18 a63c
00000260: 61d0 cfbd 006c 27bc e631 cdbd 8ed0 793d
00000270: 57a4 5bbd 21dd 153e 0224 5abd 4342 85bd
00000280: fe9f 803d 2060 e53b 2aec 8e3d 1217 b7bd
00000290: a08c 89bd 228e 6e3e 1e18 8c3d 1230 8d3d
000002a0: 827f c1bd f538 6abd 8da0 e13c 8207 5ebc
000002b0: 9651 9d3d 19e4 e6bd fd38 c5bd 358c bbbd
000002c0: 7a39 843d ed03 223e 1316 2bbd e2fc 32be
000002d0: 0b5f 23be 0f7f 263e 9c38 893d bf4a f33d
000002e0: 5b16 1ebd 5f4e 86ba cd35 2d3e ea22 0f3d
000002f0: 9fef 15bd f101 30be da79 c1bd c4fe f8bd
00000300: 5ee6 983c b95b 5b3c 7a62 66bb c2cc 4e3d
00000310: b4f2 0bbe dab8 87be 486d 9b3e ce03 84be
00000320: ef9f 253e 6f45 eb3c ce15 1cbe 7d73 fcbd
00000330: 1873 f7bd 674a 213d 866b 343e e571 eabd
00000340: 29e9 be3d bb19 a23d fe0b 1d3d a3f6 a6bd
00000350: 1951 acbd 3415 483c 5565 53bd 90b2 2a3e
00000360: 9e8b 7f3c 0d7c 723d 5fd1 58be 585a 82bd
00000370: 16f6 9fbe 5fc9 b5bc d6cf d13d 5453 843d
00000380: 2a6a e13d 7941 4bbd 8c7f 47be f044 f5ba
00000390: ca92 0cbe 6c85 943d 9fc1 98bc 7013 f3bb
000003a0: 696b 9bbd d36a bebd dde4 963c d1ce 133e
000003b0: ac81 8e3d 24d5 54bc c2ea 063e 13cc 8d3c
000003c0: 150d 853d df4f efbc a086 9abd 54cc 75bc
000003d0: c451 a5bd 37de d33c dd3c 593d 5dc4 d63d
000003e0: e515 a6bd 8463 0e3e 0e46 ac3c 7a67 36be
000003f0: ac35 4fbd dbaa d93d 06db b6be 280a 283e

11 f4 [16]
0.034499962 0.10218006 0.27184197 0.044819377 0.21062951 0.066460244 0.12323501 0.0501492
0.16591908 0.3277531 0.11004626 0.113846056 0.029336985 0.026554609 0.13443382 0.35739186
00000000: d54f 0d3d c843 d13d df2e 8b3e 8694 373d
00000010: 43af 573e 4f1c 883d a362 fc3d 3f69 4d3d
00000020: b1e6 293e 41cf a73e ef5f e13d 1f28 e93d
00000030: 1e54 f03c 0d89 d93c 05a9 093e 11fc b63e

110 f4 [240]
0.9784305 0.9789793 0.97751474 0.9797248 0.9809939 0.9790102 0.97909695 0.9797167
0.97844243 0.97928333 0.9818212 0.9789737 0.9792192 0.9790897 0.98052627 0.9791454
0.9760047 0.9784077 0.97770905 0.9796891 0.9799638 0.9788525 0.979746 0.980436
0.97904277 0.9818606 0.9796874 0.9788501 0.9785936 0.9794973 0.9790728 0.97788185
0.98005766 0.9818992 0.9796687 0.9787354 0.97859997 0.98092765 0.97809 0.97967505
0.97934943 0.9793748 0.9791636 0.9793734 0.9811619 0.98086673 0.97914743 0.9791998
0.9800035 0.97917885 0.9793741 0.9787949 0.9781938 0.9813456 0.97765243 0.979453
0.97851276 0.97918046 0.9791707 0.97886735 0.97780156 0.97940636 0.9794382 0.9805962
0.97864014 0.9785266 0.97938794 0.9802116 0.9810576 0.9785628 0.98009384 0.97970617
0.9792211 0.9810948 0.9789567 0.9834743 0.97822 0.9824944 0.97832334 0.9856511
0.9791866 0.98112977 0.98022187 0.9773362 0.9785915 0.97807235 0.97902095 0.97869414
0.98160225 0.9786308 0.9794303 0.97978926 0.97811955 0.9841911 0.97925085 0.98083
0.97875714 0.97939926 0.9807646 0.9785866 0.9777848 0.9788092 0.9787328 0.97966087
0.97844744 0.9796693 0.97931206 0.97855943 0.9789148 0.97937846 0.9784973 0.9796827
0.9794953 0.97999966 0.9791969 0.9788804 0.9793238 0.9776558 0.97974986 0.9796881
0.9795037 0.97879606 0.9701411 0.9782841 0.9849504 0.9799143 0.9789909 0.97961944
0.98102397 0.985734 0.983096 0.9766165 0.9804644 0.9789727 0.97913265 0.9786583
0.97764874 0.97541374 0.9790115 0.98003125 0.9813926 0.97903997 0.9853094 0.9814957
0.9812253 0.98079175 0.98054415 0.9764967 0.98210657 0.98707646 0.9798837 0.9781647
0.9782239 0.9887798 0.9776465 0.9776979 0.9776851 0.97979766 0.98061216 0.98085994
0.9785722 0.9773395 0.97742707 0.98126215 0.9822591 0.98235565 0.9776731 0.9872996
0.98012275 0.9801585 0.979745 0.97965366 0.9801129 0.9802461 0.9796985 0.98092127
0.9737 0.9814009 0.98060316 0.9794921 0.98006135 0.9805462 0.98075414 0.9781321
0.97626674 0.9804297 0.9794704 0.9828806 0.9780461 0.97570676 0.977575 0.97929627
0.980381 0.9796295 0.98367184 0.97992706 0.978154 0.98438174 0.9784788 0.9795334
0.9803612 0.9792033 0.9823121 0.98340255 0.9770364 0.9830388 0.9777759 0.97748744
0.9808931 0.9789826 0.97895396 0.9760331 0.98061 0.9844537 0.9821609 0.98500186
0.97979206 0.9779758 0.9744759 0.9788824 0.97727484 0.9773704 0.97927356 0.99111307
0.98003876 0.9769149 0.98112434 0.97891575 0.98036766 0.9812803 0.97966117 0.9797702
0.97860557 0.97980696 0.97909695 0.9777097 0.9768556 0.9759976 0.97667557 0.98088944
00000000: 6c7a 7a3f 639e 7a3f 683e 7a3f 3fcf 7a3f
00000010: 6b22 7b3f 6aa0 7a3f 19a6 7a3f b7ce 7a3f
00000020: 347b 7a3f 50b2 7a3f a258 7b3f 059e 7a3f
00000030: 1cae 7a3f 9fa5 7a3f c503 7b3f 46a9 7a3f
00000040: 72db 793f ed78 7a3f 244b 7a3f e8cc 7a3f
00000050: e8de 7a3f 1496 7a3f a2d0 7a3f dbfd 7a3f
00000060: 8ca2 7a3f 375b 7b3f cbcc 7a3f ec95 7a3f
00000070: 1c85 7a3f 56c0 7a3f 84a4 7a3f 7756 7a3f
00000080: 0fe5 7a3f bf5d 7b3f 91cb 7a3f 678e 7a3f
00000090: 8785 7a3f 131e 7b3f 1b64 7a3f fccb 7a3f
000000a0: a5b6 7a3f 4fb8 7a3f 77aa 7a3f 37b8 7a3f
000000b0: 6d2d 7b3f 151a 7b3f 68a9 7a3f d7ac 7a3f
000000c0: 82e1 7a3f 77ab 7a3f 43b8 7a3f 4d92 7a3f
000000d0: e96a 7a3f 7739 7b3f 6e47 7a3f 6fbd 7a3f
000000e0: d07f 7a3f 92ab 7a3f eeaa 7a3f 0d97 7a3f
000000f0: 3451 7a3f 60ba 7a3f 76bc 7a3f 5a08 7b3f
00000100: 2988 7a3f b880 7a3f 2bb9 7a3f 26ef 7a3f
00000110: 9726 7b3f 1783 7a3f 6ee7 7a3f 06ce 7a3f
00000120: 3cae 7a3f 0729 7b3f e89c 7a3f f9c4 7b3f
00000130: a06c 7a3f c184 7b3f 6673 7a3f a153 7c3f
00000140: f9ab 7a3f 522b 7b3f d2ef 7a3f b532 7a3f
00000150: f984 7a3f f362 7a3f 1ea1 7a3f b38b 7a3f
00000160: 494a 7b3f 8c87 7a3f f2bb 7a3f 78d3 7a3f
00000170: 0b66 7a3f f3f3 7b3f 2fb0 7a3f ad17 7b3f
00000180: d48f 7a3f e9b9 7a3f 6413 7b3f a784 7a3f
00000190: 1b50 7a3f 3d93 7a3f 3c8e 7a3f 0ecb 7a3f
000001a0: 887b 7a3f 9bcb 7a3f 32b4 7a3f df82 7a3f
000001b0: 299a 7a3f 8cb8 7a3f cd7e 7a3f 7ccc 7a3f
000001c0: 34c0 7a3f 42e1 7a3f a6ac 7a3f e897 7a3f
000001d0: f7b4 7a3f a747 7a3f e3d0 7a3f d7cc 7a3f
000001e0: c1c0 7a3f 6192 7a3f 2b5b 783f d470 7a3f
000001f0: b625 7c3f aadb 7a3f 269f 7a3f 57c8 7a3f
00000200: 6324 7b3f 1059 7c3f 2eac 7b3f 8a03 7a3f
00000210: b7ff 7a3f f49d 7a3f 70a8 7a3f 5a89 7a3f
00000220: 3047 7a3f b7b4 793f 7fa0 7a3f 54e3 7a3f
00000230: 8c3c 7b3f 5da2 7a3f 3d3d 7c3f 4d43 7b3f
00000240: 9531 7b3f 2b15 7b3f f104 7b3f b0fb 793f
00000250: 566b 7b3f 0bb1 7c3f a8d9 7a3f 0069 7a3f
00000260: e26c 7a3f ac20 7d3f 0b47 7a3f 694a 7a3f
00000270: 9249 7a3f 05d4 7a3f 6609 7b3f a319 7b3f
00000280: b583 7a3f ec32 7a3f a938 7a3f ff33 7b3f
00000290: 5575 7b3f a97b 7b3f c948 7a3f abbf 7c3f
000002a0: 53e9 7a3f abeb 7a3f 91d0 7a3f 95ca 7a3f
000002b0: aee8 7a3f 69f1 7a3f 85cd 7a3f a81d 7b3f
000002c0: 6744 793f 173d 7b3f cf08 7b3f ffbf 7a3f
000002d0: 4de5 7a3f 1305 7b3f b412 7b3f de66 7a3f
000002e0: 9eec 793f 71fd 7a3f 92be 7a3f 109e 7b3f
000002f0: 3b61 7a3f ebc7 793f 5b42 7a3f 29b3 7a3f
00000300: 40fa 7a3f 00c9 7a3f ebd1 7b3f 80dc 7a3f
00000310: 4d68 7a3f 7100 7c3f 967d 7a3f b3c2 7a3f
00000320: f4f8 7a3f 11ad 7a3f ce78 7b3f 45c0 7b3f
00000330: 0f1f 7a3f 6ea8 7b3f 854f 7a3f 9e3c 7a3f
00000340: cf1b 7b3f 9b9e 7a3f ba9c 7a3f 4edd 793f
00000350: 4209 7b3f 2805 7c3f e66e 7b3f 1529 7c3f
00000360: a7d3 7a3f 9f5c 7a3f 4177 793f 0998 7a3f
00000370: af2e 7a3f f234 7a3f acb1 7a3f 96b9 7d3f
00000380: d2e3 7a3f 1817 7a3f f72a 7b3f 399a 7a3f
00000390: 60f9 7a3f 3035 7b3f 13cb 7a3f 38d2 7a3f
000003a0: e585 7a3f a1d4 7a3f 19a6 7a3f 2f4b 7a3f
000003b0: 3513 7a3f fbda 793f 6907 7a3f 921b 7b3f
