__pycache__/model_onnx/eyeclassification_softmax.onnx (onnx, 491488 bytes, 143 tensors)

1 f4 [16, 3, 3, 3]
00000000: fdaf 4d3e 3134 e73d cafa 073e b600 d93c
00000010: d8df 8dbd a5f9 19be 7add edbc aa67 34be
00000020: 6790 32be 6281 c13d 0b5f 4d3e d221 7c3d
00000030: 9928 e73d 0a47 3bbd 4332 a9bd 7938 b2bd
00000040: df6a 3bbe 9485 57be 68a6 473e 9042 7d3e
00000050: ca61 183e 2117 1e3e fb77 9c3c c581 4abe
00000060: f38f 0f3d 8111 d3b8 602c bbbe f674 353d
00000070: 1502 cabc 2c11 47be 11d1 efbc f255 c1bd
00000080: cc84 25be 02ed e73d fc73 4a3e 3010 783e
00000090: 1f00 42bd 1853 eabd ab31 65be db26 88bd
000000a0: cb53 1cbe a048 81be fb17 483d a997 173e
000000b0: c064 5d3e 7e29 973d 773b 223d 4c3e b2bd
000000c0: a6a8 9bbc 60fb 13be d5d3 80be cba4 983e
000000d0: fe4e 233e 67ff dd3a f727 cf3d 17dc 7cbc
000000e0: 192a 03bd 9c6c 8cbd af4a 9f3d 7848 673d
000000f0: 5322 43be c1a3 473d 4ecf 4bbe 8801 db3c
00000100: 9aae c03d db66 583d bd87 843e a7a9 13be
00000110: d652 0abe 248b 803d d857 3ebe 345f 6dbe
00000120: 1557 403d 9f4b 853e c6d4 303e 0205 d53e
00000130: b6be fbbd cd3a d43d aa78 5dbc c1e0 cc3d
00000140: 0a43 bdbe 9deb 68be e11e 59bd ac7e 1ebe
00000150: 622e dfbc 5aa9 993c e34c 86bd 07c6 f2bd
00000160: c39b 0fbe a738 2dbe 4028 babd b7a2 94bd
00000170: f889 1bbe 0c0d bbbc a9c1 0e3e df01 7b3c
00000180: 2361 8dbe 56b8 27bd 1902 f23c 749c 58bb
00000190: 6156 e1bc 2c61 6cbc da06 22be b80b 363e
000001a0: 6c28 813c d138 07be c39a 09be 7689 053e
000001b0: 1011 60be 2f0d 86bd 0e36 9438 6da8 57bd
000001c0: c276 f3bc 1802 a4bd df19 513e e299 02bd
000001d0: 696f 1a3d 3648 d13d b8f1 88bd 818c 1f3e
000001e0: 2021 61bd b4e2 39be b1b7 c93c 4181 0cbe
000001f0: a1c8 0ebd 41d4 633d 83b7 2fbd 8cf5 75be
00000200: 3913 7d3d a52f 1d3d a943 26be 0bcd 8cbd
00000210: f54f ccbd 7536 02be 2aa1 85bd efff fdbd
00000220: db7e 393e b189 4fbd fbdf 8e3e be3e 483d
00000230: 2130 40bd 2b32 b0bd 8e3c bfbd 79da b4bd
00000240: ff63 c23d 852a 1e3d 2bda 063c 6adf ec3d
00000250: 08ec 9e3b 75e3 2a3d a988 ddbd 79c5 15be
00000260: 5f1c dd3d 7251 b63d 7b94 e43d b992 233e
00000270: f8b6 473d 7317 f1bc a084 6b3e 9a41 43be
00000280: 7855 d1bd e03c 1fbd 75f9 943c 1011 25be
00000290: 67a9 023e 9094 99be c523 80be d0c6 c5bd
000002a0: a326 063d 07ad bdbc bef6 b3bd 8eb5 b7bd
000002b0: a3df 91bd dd7b a1bc e279 85be b025 123b
000002c0: 49ad b1bd aa89 a6bd b701 1cbd 55eb 26bd
000002d0: fa6d 383c 8831 c33b fa13 07bd 0517 05be
000002e0: 403a 1dbe d0b6 ebbd 1f56 b7bc 54ef 0fbe
000002f0: a5da e73d 5db4 933d 742f 853c a3db 8ebd
00000300: 4d7d 8bbd 1d11 2abe dfa7 76bd a3c5 45be
00000310: 7ce7 6cbd 7d2d 2abe a4c0 7c3d b220 5d3e
00000320: f7f0 05be 88d7 b53d 2ee1 38bd 97f5 d1bb
00000330: 7a8e 16bc 37f6 28be 5303 d33d 339c 963c
00000340: b1a3 c5bd 9d2f d93b e47c 0bbe 232b 96be
00000350: 0307 583d 5d1b 4b3e 8c3e d03d 9dcb 203e
00000360: ea35 d63b c92e 6bba 94b5 80bd a6b5 3e3e
00000370: b2cd cb3d 0efe 00be ea74 653e 2fcf 543c
00000380: 0b9d a8bd 0160 bbbb 8ab9 d5bd 386c a13d
00000390: 2700 333d 3eb7 623d d6ca cd3c b007 58bd
000003a0: d3a1 e0bc a5d9 ad3d e84c 023e 72ae 2cbe
000003b0: 6dd1 473e f168 353d 8648 4bbe 13b7 fe3d
000003c0: ff8e f5bd be2d b73d 2060 e43d 1cd1 733e
000003d0: 5bfc 683d b336 803d b222 fdbd 7175 c2bd
000003e0: 7e51 013d 84ac 06be 73fc 133e 9cf3 85bd
000003f0: e63e 85bc b76f abbd 9e03 d33c 8cde 2d3d
0.20086665 0.112892516 0.13279262 0.026489597 -0.069274604 -0.15036638 -0.029036272 -0.1761767
-0.17437898 0.09448506 0.20055787 0.06155569 0.1128704 -0.045722045 -0.0826154 -0.087021776
-0.18302487 -0.2104705 0.19497073 0.24732423 0.14881054 0.1543851 0.01910018 -0.19776066
0.03504939 -0.000100645244 -0.36557293 0.044300996 -0.024659196 -0.19440144 -0.029274495 -0.09440221
-0.16163939 0.113245025 0.19770807 0.24224925 -0.047363397 -0.1144163 -0.22382228 -0.06648036
-0.1526634 -0.2525072 0.048850995 0.14803948 0.21620464 0.07380961 0.03960749 -0.087032884
-0.019001316 -0.1445136 -0.25161615 0.29813227 0.15948102 0.0016937078 0.101150446 -0.015433333
-0.03202257 -0.06856653 0.07777917 0.056465596 -0.19056062 0.048740152 -0.19903299 0.026734129
0.094083026 0.052832466 0.2588481 -0.14420186 -0.13508162 0.06276539 -0.18588197 -0.23180848
0.046958048 0.26034257 0.17268667 0.41605383 -0.122922346 0.10362778 -0.013517538 0.10003806
-0.3696521 -0.2274613 -0.053007964 -0.15478009 -0.027243797 0.01875751 -0.06557634 -0.11854177
-0.14024262 -0.16916142 -0.09089708 -0.07257598 -0.1518935 -0.02283337 0.13941063 0.01532027
-0.27613172 -0.04094728 0.029542016 -0.0033052238 -0.027507009 -0.014427464 -0.15822926 0.17777908
0.015766345 -0.13205267 -0.13437943 0.13040718 -0.21881509 -0.06545483 7.0672584e-05 -0.052650858
-0.029719714 -0.08008212 0.20420025 -0.031885035 0.037703905 0.10218851 -0.06686729 0.15580942
-0.05496323 -0.18152887 0.024623724 -0.13721181 -0.034859303 0.055622343 -0.04289962 -0.2401945
0.06178591 0.038375515 -0.16236748 -0.06875046 -0.09976188 -0.12716086 -0.0652488 -0.12402331
0.18114798 -0.050668422 0.2790526 0.04888796 -0.0469209 -0.08603319 -0.09337722 -0.08830733
0.09491729 0.03861477 0.008230726 0.1156605 0.0048499145 0.041720826 -0.108170815 -0.14626111
0.10796427 0.08902253 0.11161133 0.15973939 0.048758477 -0.029430127 0.22999811 -0.19067994
-0.1022138 -0.038876414 0.018185357 -0.1611979 0.12759934 -0.29996157 -0.2502729 -0.09657061
0.03275169 -0.023153795 -0.08787297 -0.08970176 -0.071227334 -0.019712383 -0.26069552 0.0022300296
-0.0867563 -0.08131726 -0.038087573 -0.040751774 0.011256689 0.0059568323 -0.032978036 -0.12997063
-0.15354252 -0.11509478 -0.022379933 -0.1405614 0.11321 0.07212136 0.016257979 -0.06975486
-0.068110086 -0.1660809 -0.060218688 -0.19313674 -0.05783795 -0.16618915 0.061707154 0.21594504
-0.13080202 0.08879 -0.045136623 -0.0064074504 -0.0091892425 -0.16500174 0.103033684 0.018385028
-0.09650362 0.0066279904 -0.1362186 -0.29329786 0.052741062 0.19834657 0.1016818 0.15702672
0.006537189 -0.000897151 -0.06284633 0.18623981 0.09951343 -0.12596914 0.2240788 0.01298885
-0.082330786 -0.0057182317 -0.104357794 0.07881969 0.043701317 0.055350535 0.025121134 -0.052741706
-0.027420914 0.08488778 0.1272465 -0.1686342 0.19513483 0.044289533 -0.19851884 0.124372624
-0.11990165 0.089442715 0.11151147 0.23810238 0.05688129 0.06260433 -0.12360133 -0.094950564
0.031571858 -0.13151747 0.1445177 -0.065406054 -0.016265344 -0.08370917 0.02575856 0.042448565

10 f4 [16]
00000000: f750 4fbe c403 043e 9db3 f03d 3d02 133e
00000010: d6b9 c43d d09a b53d 3bc4 10be 64b6 973c
00000020: 4eb5 bebd d928 b6bd 6ca5 4cbe bfc1 5dbc
00000030: d9a3 edbd b5a0 143d 8d2b 0ebb 38e4 e8bb
-0.2024573 0.12892061 0.117530085 0.14356323 0.09605758 0.08867419 -0.14137356 0.018519588
-0.09311925 -0.0889451 -0.19984978 -0.013534962 -0.11603517 0.036286075 -0.0021693439 -0.007107284

100 f4 [240]
00000000: 5e99 8a3b 17d4 993a e095 103b ac60 383b
00000010: 9999 1fbb badc d739 ab13 713b 2641 783b
00000020: 0eb9 7c3a 7777 103b 8a81 b6ba fac0 2fbb
00000030: ef4e aab9 8041 ccba ab40 c4ba f27b b938
00000040: 837d 33bb 7083 97b9 51fe b0ba 683c a83a
00000050: b521 4f3b 52e0 b2ba f22c 58bb d556 7c3b
00000060: aeb4 483b 020d 9c3a d26e d539 5afc c939
00000070: c8ae 3ebb bd0d bd3a 3bf1 993a 769e bdbb
00000080: 518c 95ba 6147 3bbb 7c2a e13a a78a 6cba
00000090: bea9 c3ba 05d1 e43a 60d0 c2b8 c1ec 66b9
000000a0: 9808 fab9 462a 9fba 138b 94ba bd00 3fb9
000000b0: abe3 10bb 0976 caba def9 1bbb 3ede f03a
000000c0: 1b46 6339 a92e 71bb 3c60 963b 2379 6dba
000000d0: 6c32 8abb 2c9c 12b9 33df 4a3a 3cff 8c3a
000000e0: 287b 173b 575a 07ba 41e3 b63a 3f75 333b
000000f0: b4c4 f63a 4b42 dbba dca5 06ba a9fb 7b39
00000100: eab3 e7ba 3a2e 18ba e5b4 4ebb 7442 86ba
00000110: 3f92 7f3a 5fb7 6f3b 4e93 44ba 8d98 593b
00000120: 3ac3 24bb 271d 7bb9 5479 d3ba c667 083b
00000130: 23e8 feba 72b9 51ba db9d bd3a f0b9 2aba
00000140: a273 d4ba f0b4 5239 0d7e 29ba 6b5a dd3b
00000150: 2668 173b 6657 71ba b8eb 19ba 94a9 d33a
00000160: 228d f93a 7ae5 853b afbd 3f3a 66d4 afb8
00000170: e0ad 7eba e468 b1b7 daf6 0fbb 1d5d 0a3a
00000180: a8dc 2bbb 291f c23b 5512 cdba 2f26 11ba
00000190: 7838 d4b8 30b6 92bb 4c92 f2ba 7800 0f3b
000001a0: c4c4 c9b9 3070 d23a db68 13bb 13a3 82b9
000001b0: e6a1 e63a 7696 daba 90e7 053c e6b2 19bb
000001c0: 28fd bc39 6c5f 4fbb f4ae 8b3b db2c 18ba
000001d0: 30cc ddba 621b f23b 3a0a 7a3b c91a 67b9
000001e0: ce85 5a3a bcb9 8d39 fe65 893b 4a1c ee3a
000001f0: d706 323c d85b e0ba 6bc4 a4bb aa0e 0ebb
00000200: 4086 a0b9 e526 c0bb 6834 6ebb c345 6ebb
00000210: 1108 63bb f95c 0d38 08bf fe3c 5ada c33c
00000220: 7558 9cb9 4a80 1f3b 5a83 9bbb bc3b edbb
00000230: 06c0 c1bb 65b6 e93a 00e4 2a3c b119 2f3b
00000240: 81b6 babb 5dea 6b3b ad73 38bb 262b 323b
00000250: 0459 5ebb d532 a23c 7536 46ba 947b bbbb
00000260: 0764 5bba 7b25 b03b 0c72 fdba 451a 8639
00000270: 1139 13bb 4507 f139 247e bdbb 06ee 863b
00000280: eb14 24bc c257 42bc f34a 73ba f41c 8f3a
00000290: 1b77 183c 0dad 683b 2b50 c93b cd15 633a
000002a0: 3d4b a63b 4e2f 9eb9 c8af c8bb 1a2f 533b
000002b0: 926f 843b b6fe cb3a ed74 2f3c b87f 0fbb
000002c0: 7363 2e3b c02a 0e3a 2e08 9438 1d3d 143a
000002d0: 4bce a83c 8e31 c5bb 6e4e 36ba ea9d 23bb
000002e0: 3fc0 d2b9 a301 b6ba cb44 72bb 471a b93b
000002f0: f77e 0a3b 0bc4 74ba 0644 c9ba 4781 b53b
00000300: fd45 48ba 92bc 093c 48a2 fb3a 25c2 1d3a
00000310: 8ff6 9fbb d181 8eba 557a 44bb 07cb 16bc
00000320: 023a 0abb d4de 8f3a 5ab4 103c c0c7 243b
00000330: 35f3 71bb 97ed 7dbb de98 3abb 8696 1b3b
00000340: ed56 473b de35 823b 2afa 0a3c 6b80 8dba
00000350: 6789 443c 276b 1fbc ea60 5e3b 5251 7cba
00000360: d96a 81bb 952b 64ba 6356 5eba 97db 0fba
00000370: 24c0 4cbb 0e8e 88bb d320 5f39 33c0 f1bb
00000380: f6ce 73bb 147c 87bb 5c20 5eb9 21ee 29bb
00000390: 9ad0 ab3a 72be e23a 694b c1b9 ab45 5c3c
000003a0: 9769 eebb ff6e dcbb 38af dbba ec58 e43b
000003b0: 4ce0 e53b a196 403b d99e 12bc 73c2 eeb9
0.0042297086 0.0011736181 0.0022061989 0.0028133793 -0.0024353026 0.0004117245 0.0036785405 0.0037880628
0.00096406124 0.0022043863 -0.0013924104 -0.0026817904 -0.00032483737 -0.0015583485 -0.0014972886 8.844574e-05
-0.0027388043 -0.00028898893 -0.0013503527 0.0012835385 0.0031605784 -0.0013647175 -0.0032985774 0.0038503904
0.0030625272 0.0011905732 0.00040709093 0.00038525724 -0.0029095877 0.001442365 0.0011744866 -0.0057867123
-0.0011409615 -0.002857648 0.0017178799 -0.00090233464 -0.0014927906 0.0017457312 -9.289454e-05 -0.00022022707
-0.0004769012 -0.0012143336 -0.0011332951 -0.00018215454 -0.0022108357 -0.0015446554 -0.0023800055 0.001837678
0.00021674523 -0.0036801493 0.0045891088 -0.00090588833 -0.0042174365 -0.00013981824 0.0007738948 0.0010757218
0.0023114178 -0.0005163303 0.0013953225 0.0027383117 0.0018826933 -0.0016728131 -0.00051364093 0.00024030976
-0.001767752 -0.0005805228 -0.0031540927 -0.0010243193 0.00097492704 0.0036577804 -0.0007498757 0.00332025
-0.0025140778 -0.00023948085 -0.0016134181 0.0020813807 -0.0019447844 -0.0008000351 0.00144666 -0.0006512692
-0.0016208778 0.00020094565 -0.00064656214 0.0067551634 0.0023102849 -0.0009206444 -0.00058716116 0.0016148561
0.0019039253 0.0040861936 0.0007314337 -8.3842126e-05 -0.00097152404 -2.1148888e-05 -0.0021967203 0.0005278157
-0.002622405 0.0059241247 -0.0015645722 -0.0005537001 -0.00010119466 -0.004477285 -0.0018506735 0.0021820348
-0.0003848431 0.0016055163 -0.0022492919 -0.00024917032 0.0017595857 -0.0016676921 0.008172885 -0.002345258
0.0003604677 -0.003164257 0.0042627994 -0.0005805024 -0.0016921815 0.007388518 0.0038153068 -0.00022039855
0.00083359785 0.00027032 0.0041930666 0.001816639 0.010865889 -0.0017117215 -0.0050282977 -0.002167622
-0.00030617602 -0.0058640116 -0.0036347155 -0.00363575 -0.003464226 3.3703607e-05 0.03109695 0.02390783
-0.00029820544 0.002433794 -0.004745883 -0.007239787 -0.0059127836 0.0017830847 0.010430336 0.0026718194
-0.0056980257 0.0035997846 -0.002814512 0.0027186363 -0.003392757 0.01979963 -0.00075612153 -0.005721519
-0.0008369092 0.005375562 -0.0019336357 0.00025578044 -0.0022464434 0.00045972518 -0.0057828594 0.00411773
-0.010014753 -0.011861743 -0.00092808827 0.0010918663 0.009305741 0.0035503537 0.00614359 0.00086626114
0.005074887 -0.00030171353 -0.0061244704 0.003222412 0.0040416205 0.0015563581 0.01070903 -0.0021896195
0.002660957 0.00054232404 7.0587135e-05 0.00056548585 0.02060618 -0.0060178703 -0.0006954436 -0.002496595
-0.00040197556 -0.0013885986 -0.0036967273 0.0056488845 0.0021132806 -0.0009337074 -0.0015355356 0.0055390927
-0.00076398236 0.008406775 0.0019198144 0.00060180045 -0.004881687 -0.0010872429 -0.0029980142 -0.009203679
-0.0021091704 0.0010976442 0.008832062 0.0025143474 -0.0036918644 -0.003874635 -0.0028472464 0.0023740842
0.0030416802 0.0039737066 0.008482495 -0.0010795718 0.01199565 -0.009730137 0.0033932277 -0.0009625155
-0.003949505 -0.0008704004 -0.00084815006 -0.00054877385 -0.0031242454 -0.004167325 0.00021279165 -0.0073776483
-0.0037202216 -0.0041346643 -0.00021183625 -0.002592929 0.0013108433 0.0017299189 -0.00036868014 0.0134443445
-0.007275771 -0.006727099 -0.0016760593 0.006968608 0.0070152637 0.0029386657 -0.008949005 -0.00045539773

101 f4 [20, 120, 1, 1]
00000000: 9a96 a1be e2ae b7be 5515 8e3d e825 9ebe
00000010: ac34 3ebe 6145 bebe ee1b 8b3e a2ab 92be
00000020: fbfd 0a3e 3ee4 4b3e 632a 0f3e 3348 ddbe
00000030: 6305 07bf f2f0 08be e0c5 4d3d f8ba 0f3e
00000040: a35f e03e 1d5f 47be 864c cf3e 943a 103f
00000050: aee3 adbe d8cf 023e 0201 ac3d f5d3 ee3d
00000060: 405d 663e fd11 23bf 5b21 fbbe a29d c83c
00000070: dc21 61be 2172 12bf 7c8d 503e 15a0 253e
00000080: df65 cd3d 22c7 d73d 5e70 67be 4474 0dbe
00000090: b4a6 1dbe 180e 9f3d 2699 05bf 01f2 5bbe
000000a0: e12e 363e 38c2 c4bd cc2a 993e aad8 78be
000000b0: 9698 16bf 1b54 9ebe f9cc c1be 7d89 0a3e
000000c0: b480 7f3d a6ce a33c db6f e2bd 1fc9 fa3e
000000d0: 17ba 633f 3743 b3be fc23 913e 149b 45be
000000e0: 627d 19be f45b 0abf 1b84 9b3e 6bcb 223e
000000f0: 5912 acbe bb7e a33e 2cfb ccbe d5dc a1bd
00000100: 4b05 93be 9ef8 9c3d 32ad 033f d23d 9f3e
00000110: 5729 b3be 2c86 0d3e 5431 713d a1bc 31bd
00000120: f3c6 3bbe 84b9 0bbe 5bf0 f1bd 6dac 9cbe
00000130: 2959 29bd 85ac 203e 5a64 883e 4fa0 05be
00000140: f313 de3e d734 0c3e 763a 7a3e b3a5 263e
00000150: 8b9d a23e 7b4d 233f 110f 4d3d fc4b 62bd
00000160: 491d a93e 7501 2c3f 4074 f4be 14aa 0a3f
00000170: 63fb ff3d 4523 f33b 7c90 0b3c b5f5 febe
00000180: ede9 483e dc19 b5bd 831c 9e3e 7b2f 4c3e
00000190: 468d b43e 2fd5 d13e e26f b63e 599d 01bf
000001a0: ce87 ffbd f4b3 db3e 93c1 87be ce71 b6be
000001b0: 8df7 613e ba26 62be fa8b abbd 44a6 873e
000001c0: 9d21 e5be 4a87 cabe 1bd5 b2bd 2f3c e73d
000001d0: f68d ad3e 29d4 5fbc 7715 22be bed7 9bbe
000001e0: 2073 15bf c078 b83e 85ac f73b 9a71 f7be
000001f0: d6a1 58bd 4c22 243d 55c5 31be 2f84 e13e
00000200: 71a0 52be d2e8 0b3f b619 9dbe aee2 8a3e
00000210: c0ee 90be 68e9 efbd 8f8b f9bd f21e 833d
00000220: f1da 2dbe 4e38 21bf 63de ad3e bff7 2fbe
00000230: 3ce6 20be 8773 18be 85cb 153f 084b c5bb
00000240: 1612 113f 33bf f13e 8b17 443e 6d96 c33c
00000250: 07c5 863e 5258 c8be d4ea 8e3d 0a00 13be
00000260: 97b2 80be d61f adbe 291a 15bf 2416 87bd
00000270: f02b 7d3e 93d9 f5be 3027 983c 42ef db3d
00000280: 1f1b 9cbe 6701 65bd 5c50 ba3d 7f12 aabd
00000290: e7c4 11bf 7aeb dd3d 7e05 3cbe 547e 8fbe
000002a0: 64b2 6a3f ac1e bb3e 3bea d03c 8bdd 053f
000002b0: 5e2b 3fbe 66e3 96be 3ad0 bebd 8900 28be
000002c0: 9ba2 96be 18a8 07bf 11fa 0dbf a214 233e
000002d0: daf0 11bf f461 5ebe e3e5 3ebd a443 433f
000002e0: b98d b1be 7bda df3e f703 c33e edb8 203c
000002f0: b602 42be 5cb1 353e a10c 6cbd 36de c9bd
00000300: 8aa6 873d 087e afbe 9281 e0bd a609 66be
00000310: c742 2c3f 079d 073f 0fa7 c93e d1d0 04bf
00000320: 5735 3e3e d0aa e1be 158a 9b3e acbb 343e
00000330: d697 1fbf 8250 edbd 4c72 403d 1cfc 39be
00000340: fdbf c93d 02a3 01bf ff24 1dbe 097b 9abd
00000350: 70ae e23d 1efe 0cbe b442 233d ebb3 7b3e
00000360: 6e1a fb3c 72ce 3b3f f7ac c83e 32ed 423e
00000370: 90ae a3be 8390 a13e 0885 00be 2f24 d23e
00000380: 81e1 533c e242 1dbe 216b a4bd efdc e9bd
00000390: 933c 993d b133 c03e 5e7a 4ebd 80b4 153e
000003a0: d94b f33e cc14 72bc 1c1a 893e b3f8 b73e
000003b0: 6845 553f 6bd2 343f f285 3cbe a93d 203d
000003c0: e21b d0be 0230 bcbd e84b 613e 7902 ab3e
000003d0: bb45 0bbf c69a 063e 30b6 983e 619a 6ebe
000003e0: 50e4 5e3e 7ae2 d3bc edab 8c3e 3a14 0d3f
000003f0: cd0f 953d e93f 9fbe cc09 c4bd 2479 0a3f
-0.31560212 -0.35875612 0.069376625 -0.30888295 -0.1857478 -0.37162307 0.27169746 -0.2864657
0.13573448 0.19911286 0.13981013 -0.43219146 -0.52742594 -0.13373163 0.050237536 0.14036167
0.43822965 -0.19469877 0.4048807 0.56339383 -0.33962768 0.12774599 0.0839863 0.11661521
0.2249651 -0.6369932 -0.49048886 0.024489228 -0.21985573 -0.57205397 0.20366472 0.16174348
0.10029196 0.105360284 -0.22601458 -0.13813883 -0.15395623 0.0776636 -0.5218681 -0.21479036
0.1779132 -0.09607357 0.29915464 -0.24301401 -0.5882658 -0.30923542 -0.37851694 0.1352901
0.0623786 0.019995999 -0.11056491 0.48981568 0.88955826 -0.35012218 0.28347766 -0.19297439
-0.14989236 -0.5404656 0.30374226 0.1589791 -0.33607748 0.31932625 -0.4003538 -0.079034485
-0.28714976 0.076646075 0.5143615 0.31101853 -0.34992477 0.13820714 0.058884934 -0.04339278
-0.18337612 -0.13644987 -0.11813422 -0.306003 -0.041344795 0.15690811 0.26639062 -0.13049434
0.43374595 0.13692032 0.24436364 0.16274147 0.3176082 0.637901 0.050063197 -0.055248246
0.33030155 0.67189723 -0.47744942 0.5416577 0.1249912 0.007419976 0.0085183345 -0.49796835
0.19620486 -0.08842823 0.30881128 0.19939987 0.35264033 0.4098296 0.35632235 -0.5063072
-0.124770746 0.4291073 -0.26514873 -0.356337 0.2206709 -0.22085086 -0.08376308 0.26494038
-0.44752207 -0.39556342 -0.08732053 0.11290776 0.3389737 -0.013661423 -0.158285 -0.30438036
-0.5837879 0.36029625 0.0075584077 -0.4832886 -0.052888714 0.04007177 -0.17360432 0.4404616
-0.20569016 0.5465213 -0.30683678 0.27126068 -0.28307152 -0.117144406 -0.12184822 0.06402387
-0.16978051 -0.6297654 0.3395873 -0.17184351 -0.15712827 -0.1488782 0.5851367 -0.0060209073
0.5666822 0.47216186 0.19149606 0.02387544 0.26322195 -0.39129883 0.06978384 -0.14355484
-0.25136253 -0.3381335 -0.5824304 -0.0659602 0.24723792 -0.48017558 0.018573374 0.10738994
-0.30489442 -0.05590954 0.090973586 -0.08304309 -0.56941074 0.10835929 -0.1836147 -0.28026068
0.9167845 0.36546838 0.025502315 0.5229117 -0.18668887 -0.29470366 -0.0931706 -0.16406454
-0.29420933 -0.52990866 -0.55459696 0.1592584 -0.57008135 -0.21717054 -0.046605956 0.76275086
-0.34678438 0.43721375 0.38088962 0.009809715 -0.18946347 0.17743438 -0.05762923 -0.098568365
0.06623562 -0.34275842 -0.109622136 -0.22464618 0.67289394 0.5297398 0.39385268 -0.5188113
0.18575035 -0.44075632 0.30378786 0.17649716 -0.6234106 -0.11587621 0.046984002 -0.18162578
0.09851072 -0.50639355 -0.15346144 -0.07542998 0.110684276 -0.13768813 0.039858535 0.24580352
0.030652251 0.73361886 0.39194462 0.19035795 -0.31969118 0.31555566 -0.12550747 0.4104323
0.012932182 -0.15357545 -0.08028246 -0.11419093 0.07482257 0.37539437 -0.050409667 0.14619637
0.47518805 -0.014775466 0.26777732 0.3593193 0.8330903 0.7063357 -0.18410471 0.039121304
-0.40646273 -0.09188844 0.22001612 0.33400324 -0.54403275 0.13144979 0.29826498 -0.23301078
0.21766782 -0.025864828 0.2747492 0.5510899 0.072784044 -0.31103447 -0.09572181 0.54091096

102 f4 [20, 120, 1, 1]
00000000: 804c c63e d00f db3e 00be f03e 0c5c d0be
00000010: ed2a 0fbf b917 af3e 8275 773e c273 c83e
00000020: 2f7d 793d 330a f0be a89d 343f a8e3 203f
00000030: e618 09bd 3775 df3e 99b5 153d 0276 8d3e
00000040: 6ca1 0d3d ad22 02bd 098b 01be 3251 273e
00000050: 4099 b43e a299 bc3d 05f4 6bbe 77cb d6ba
00000060: a7a4 aebd b2aa b9be cb85 9abe f08e 0cbe
00000070: 8f66 f03e 3fbc 8fbe 2673 393e c515 e0be
00000080: 5593 fa3d 4581 3b3e 3e22 f43d c27b dabd
00000090: ee4f 423e 33c1 ca3c 179b 95be 7d02 4b3e
000000a0: da40 b0bd 58d0 16bd b45e d93d 87ba b53e
000000b0: d89d 3f3c f39c 333e 58e5 e03e 630d 82bc
000000c0: a493 033f 9b17 a3be e0c4 933e 849b b53d
000000d0: f5bd 8cbe faff 4a3e 3abd 8ebe 6d30 87bd
000000e0: b776 6f3e 7efe 0ebd 344a 68be 9c87 1a3e
000000f0: 62d0 9dbd 5dea e33d aff9 8dbd 41f1 0d3e
00000100: 3ff6 6dbe 5879 853e a8b8 d63e ea32 eabe
00000110: 40e7 ab3e 9768 a4be b019 7a3d 1501 703e
00000120: 7a4b da3c 520a 123f b049 743e 26a6 b9bd
00000130: 925b 89bc 7960 42be e49b a0bd 3998 1a3e
00000140: 1474 a63e 9ac2 2d3f 2e3a 833c d764 11bd
00000150: c155 b23d aa01 cabe c12b 013e 5c5d a5be
00000160: 1929 973d fb0e c4be 1cfc f53d f080 8cbd
00000170: 9a81 113e 8ba4 29be 61b5 e2bd 18b8 90bd
00000180: 9671 29be d298 7e3e 6fd8 723c 5965 853e
00000190: c8f8 a73b eb50 52bc 7d22 a7be 208e ecbe
000001a0: d96f b13d 746f 873e c2af b33e b2e9 80bd
000001b0: 4fa6 03bd 8a65 24be ab86 503e 5419 73be
000001c0: 4204 63be a426 05bf 577c 443e 5939 7cbf
000001d0: 5c93 87be ff70 cfbd 9a6c 8dbd 1731 8cbe
000001e0: 8117 d3bd 2505 5e3d 4ae4 f7be 5491 233e
000001f0: 35a1 08be ed15 35bd 6409 5bbd 2dfa c9be
00000200: f80d c5be 592c 74be 3ae8 dbbe e564 b33e
00000210: bbc0 813e e0c9 11be 00ad 2b3f ac05 123e
00000220: 0f4a 15bf c360 91be b12e 6b3e 4fa8 5cbb
00000230: 9223 d1bd 7a73 a0bc eb3a 0ebf dc71 69be
00000240: 3894 7b3e a14d ad3d d596 933e 146e b8bd
00000250: fc6e c03e 7771 afbd 5bba 253f bab7 043f
00000260: b3e4 283e 9cbc 8d3d cdb8 a2be acfe e63c
00000270: b87d f4bd 943f 21bf 52b9 203d 14be 45be
00000280: 8d4c 5f3e eae5 983e 37fc 403e 3b14 9dbe
00000290: bb3e d4bc f94f 9c3e 1ae1 38bd 44cb 2d3e
000002a0: a6e0 abbe 8e13 2b3f 2d80 c2be 77d7 9ebe
000002b0: 23af ccbe fb7c c2bd a845 aabe 1346 8abd
000002c0: e606 b63e 16c9 fd3e 9f9f 7f3d 7397 a3be
000002d0: 8966 4e3e 1f0c 103f 7553 1cbe 91c9 a9bd
000002e0: 216a cbbe e0c5 493f 1645 ecbe bfc7 e03e
000002f0: 4361 943e c41f 99be 1818 733d d363 d83d
00000300: f41a 6f3e 3351 df3d dc79 a9bd 5eb4 793f
00000310: 9a5e 2f3f 7b04 51bd 47a3 a13e 152f d13c
00000320: c988 433e 8511 31be ff55 6ebe 0028 3c3f
00000330: eb83 133e 218f 88be 9a0c 653d cf41 18bf
00000340: fc50 3c3e bf85 08bc 5474 823e 77b7 ef3e
00000350: e393 6a3d af22 453e 75d6 99be 4f09 553e
00000360: ebbc b1be 5b76 703e 3cb8 8b3e bbe2 c73e
00000370: e115 30be 26be 643e 27a2 823d 5885 43be
00000380: 0b1a bc3b 9654 ccbc 03c6 9c3e 6d11 66be
00000390: 5274 853d 6979 f1bd 68a1 863e d12d b63e
000003a0: 9969 c8be 062c 0f3c dd9a 15bf 0918 c53e
000003b0: ca57 cf3d a7eb 223d e4b2 a13e 2c45 ec3e
000003c0: 81b6 06be 0da4 c63e 1062 ac3d c106 053f
000003d0: 8176 ae3e 7e5d d63d 3d9f 893e ca26 21bd
000003e0: 3c95 95be fc82 403f 83d1 4dbe a3d4 393e
000003f0: cf3e 913e 93a3 60bc f11e 6fbe a16c ec3e
0.3873024 0.427855 0.47019958 -0.40695226 -0.55924875 0.34197786 0.2416592 0.39150816
0.0609104 -0.4688278 0.70553064 0.62847376 -0.03347101 0.43644115 0.03655014 0.27629095
0.034577772 -0.03177135 -0.12650694 0.16339567 0.3527317 0.09208991 -0.23042305 -0.0016387542
-0.08527499 -0.36263043 -0.301802 -0.13726401 0.46953246 -0.28073308 0.18110332 -0.4376661
0.122351326 0.18311031 0.11920594 -0.10668136 0.18975803 0.024750328 -0.29219887 0.19825168
-0.086061195 -0.036819786 0.10613766 0.35493872 0.011695348 0.1754034 0.43924975 -0.015875524
0.51397157 -0.31853947 0.2886114 0.08867553 -0.27488676 0.1982421 -0.27878743 -0.06601033
0.2338513 -0.03491067 -0.22684556 0.15090793 -0.077057615 0.111286856 -0.06932389 0.13861562
-0.23238467 0.2606914 0.41937757 -0.4574197 0.33574867 -0.32111046 0.061059654 0.23437913
0.026647318 0.57047 0.23856235 -0.090648934 -0.016767297 -0.18982114 -0.07842234 0.15097131
0.32510436 0.67875063 0.016018953 -0.03549656 0.087077625 -0.39454395 0.12614347 -0.3229779
0.07380886 -0.3829268 0.12010977 -0.068605304 0.14209595 -0.16566674 -0.110697515 -0.07066363
-0.16547236 0.24862984 0.01482211 0.26053885 0.0051260926 -0.012836675 -0.326435 -0.46202183
0.08663911 0.2645222 0.3509503 -0.06294574 -0.032141026 -0.16054359 0.20363872 -0.2374013
-0.22169593 -0.52012086 0.19188057 -0.98525006 -0.26479614 -0.10128974 -0.0690548 -0.27381203
-0.103072174 0.054204125 -0.48416358 0.15973407 -0.13342746 -0.044210363 -0.053475752 -0.3944868
-0.3848722 -0.23845042 -0.42950612 0.35037914 0.25342354 -0.14237165 0.6706085 0.14259976
-0.5831613 -0.28394136 0.2296703 -0.0033669656 -0.102118626 -0.019586314 -0.5555865 -0.2279734
0.2456826 0.08462072 0.28826013 -0.09005371 0.37584674 -0.085665636 0.6473748 0.51842844
0.16493492 0.0692074 -0.31781617 0.028197609 -0.119380414 -0.6298764 0.039239235 -0.1931079
0.21806546 0.2986291 0.18846212 -0.30679497 -0.025908818 0.30529764 -0.04513655 0.16972071
-0.3356983 0.66826713 -0.37988415 -0.31023762 -0.3997737 -0.094964944 -0.33256269 -0.06751647
0.35552138 0.4956748 0.062408086 -0.31951484 0.20156302 0.56268495 -0.15266211 -0.08290399
-0.39729407 0.7881756 -0.46146458 0.43902394 0.28980455 -0.29907048 0.05934915 0.10565915
0.23350126 0.109041594 -0.08275196 0.97540843 0.68503726 -0.051029664 0.31569883 0.025535146
0.19095148 -0.1729184 -0.23274992 0.73498535 0.14405791 -0.266717 0.05592022 -0.59475416
0.18390268 -0.008332669 0.25479376 0.4681966 0.057269942 0.19251512 -0.3004643 0.20804332
-0.34714445 0.23482649 0.27288997 0.3904017 -0.17195846 0.22338161 0.06378584 -0.19093835
0.0057404093 -0.024942677 0.3061982 -0.22467585 0.06516327 -0.11790735 0.26295018 0.3558183
-0.39143065 0.008738523 -0.5843943 0.384949 0.10124166 0.039775517 0.31581795 0.46146524
-0.13155557 0.38797036 0.084171414 0.5196343 0.34074786 0.10467051 0.26879302 -0.039343633
-0.2921542 0.75199866 -0.20099454 0.1814752 0.28368232 -0.013710874 -0.23351647 0.46176627

103 f4 [40]
00000000: cc2a 773f 66f3 773f b49a 773f 7f31 773f
00000010: 9a6d 793f 71cc 763f 393f 7d3f d6a2 7f3f
00000020: ff37 7c3f c96d 783f bd0a 7a3f 65d1 773f
00000030: 376d 773f 1af6 773f 0684 763f 4676 7b3f
00000040: 149a 783f 26f0 753f 005f 783f f3fb 753f
00000050: 3cd0 7e3f 7aa7 783f ec34 7d3f d19b 783f
00000060: fe0a 7a3f 3bc8 753f 6356 7b3f 5308 7e3f
00000070: c501 803f 71e5 823f 1085 803f e289 773f
00000080: 6eee 7a3f d7ef 793f 1e69 7e3f b726 7f3f
00000090: cac4 783f f9a1 7d3f 8f04 803f d06d 763f
0.9654968 0.9685577 0.96720433 0.965599 0.97432864 0.964057 0.98924595 0.9985784
0.98522943 0.9704252 0.97672635 0.96803886 0.96651024 0.96859896 0.962952 0.98227346
0.97110105 0.9606956 0.9701996 0.9608757 0.9953649 0.9713055 0.9890888 0.97112757
0.9767302 0.9600865 0.9817869 0.9923145 1.000054 1.022627 1.0040607 0.9669477
0.98020065 0.9763159 0.99379146 0.9966845 0.97175276 0.99075276 1.0001391 0.9626131

104 f4 [40]
00000000: b580 d430 fade ff2f f490 9f2e f642 5e30
00000010: 4d62 11b0 b614 802f e292 57b1 33ca 1e2f
00000020: 9f71 5b31 e088 03b1 a0ef 7f30 9c62 3eb0
00000030: cb57 6fb1 f3bc 9830 bdf7 7e2f 086a 3d30
00000040: f147 13b1 93ac 6ab0 bb75 9bae 1ae5 ae2f
00000050: a945 1531 0934 96b1 b54e 48b0 6e4f d930
00000060: 2f4d 8831 8330 7631 155a 0131 a656 d031
00000070: 3e62 6831 3235 922f 6160 ae2f 301b 52b0
00000080: 33c1 a0b0 4f6e 6531 c5dd 6b30 aedb 8f31
00000090: ae0c ad31 31ad 43b1 9ade 9830 f28e 62b1
1.5461611e-09 4.6542664e-10 7.256232e-11 8.0858287e-10 -5.2890387e-10 2.329778e-10 -3.137011e-09 1.4441852e-10
3.193328e-09 -1.9140813e-09 9.3108987e-10 -6.926173e-10 -3.4828982e-09 1.1113158e-09 2.318918e-10 6.890848e-10
-2.143221e-09 -8.5373947e-10 -7.069497e-11 3.1813202e-10 2.172195e-09 -4.3714903e-09 -7.2871426e-10 1.5811403e-09
3.9668957e-09 3.5825287e-09 1.8823176e-09 6.0634475e-09 3.3816288e-09 2.6595043e-10 3.1718897e-10 -7.643619e-10
-1.1696443e-09 3.338659e-09 8.5807655e-10 4.1868224e-09 5.036404e-09 -2.8474683e-09 1.1122723e-09 -3.2968583e-09

105 f4 [40]
00000000: 84c2 c6bd 7247 c13d 6a31 6ebe 98ed b8bd
00000010: 36f9 d6bc d3e4 f43d d61e 5d3e 8022 cfbe
00000020: f064 06bd 98dc 24be 1406 9bbe 511a ddbe
00000030: aa06 02bf 62a8 febe 269e fb3d ab28 abbe
00000040: 6da5 b43d 578b a7be 4d9e 153f 1497 8c3e
00000050: 391c 433e 3182 ca3e b4bb 02be 701e 0fbf
00000060: 0ecf b83d 8571 4e3e 62c1 843e 425b db3e
00000070: 9da3 5f3f 63f9 d6bd 1638 20bf 5071 1c3f
00000080: bd65 d83e 1d48 8fbe f179 863e db74 343e
00000090: 2358 32be 43e0 15be c2db 0d3f 34fe d83e
-0.0970507 0.09437455 -0.23261037 -0.090296924 -0.02624188 0.11957707 0.21593794 -0.4045601
-0.032811105 -0.16099775 -0.30278075 -0.4318414 -0.5079142 -0.4973784 0.12286024 -0.33429465
0.08820615 -0.32723495 0.5844467 0.27459013 0.19053735 0.39552453 -0.12766916 -0.5590582
0.090238675 0.20160492 0.2592879 0.42843062 0.8735903 -0.104967855 -0.6258558 0.611104
0.4226512 -0.27984706 0.2626491 0.17622702 -0.17416434 -0.1463633 0.5541345 0.42381442

106 f4 [40]
00000000: 96d2 a73f fe34 8e3f 6f12 c73f 88c7 833f
00000010: 5bcc 843f 8093 763f beed 883f 3a7c 8a3f
00000020: 15b0 8e3f 2506 563f 6335 983f e9ce 663f
00000030: f2ab 8e3f 0596 923f 449a 513f f3a0 823f
00000040: 8eb9 7d3f e03d 913f e66e 923f f362 493f
00000050: 6af4 363f 5093 a73f 7dbb 753f ea82 783f
00000060: fb97 583f 245b 6f3f 1a20 683f 182d 853f
00000070: eb0e 8f3f 994b 2a3f 1a9e 453f 3cba b33f
00000080: bd8e 953f ab24 8a3f c988 9d3f f1b2 333f
00000090: 10b7 5f3f 2117 563f 403f 593f 6737 883f
1.3111141 1.1109922 1.55525 1.0295267 1.0374864 0.9631882 1.0697553 1.0819161
1.1147486 0.83603126 1.1891292 0.9015947 1.1146224 1.1452032 0.81876016 1.0205368
0.9911126 1.1347008 1.1440094 0.7866661 0.71466696 1.3091831 0.9598921 0.9707476
0.84606904 0.93498445 0.90673983 1.0404387 1.1176428 0.665216 0.7719437 1.4041209
1.1684185 1.079244 1.2307369 0.7019492 0.87388706 0.8362904 0.84862137 1.0641907

108 f4 [120, 20, 1, 1]
00000000: 6adf c4bc e35f 833b d4f8 8dbd 6e48 743d
00000010: cc5a fabd a48a df3d c19f bfbd a5c5 233e
00000020: 8628 a13c a4ab 0fbd 7a02 10be 88df d0bd
00000030: 69b2 3abd b468 923d b4c9 e13d f85e 6a3d
00000040: 864b 04bd c9e5 a73d 56e8 1e3e 0148 0ebb
00000050: f05d cc3c a2b8 c9bd 7dfe bebd 5a17 273e
00000060: 607f e5bd 4d6e 27be 1c58 75bd 8517 d7bd
00000070: 1552 cb3d 8175 73bd 9aa6 7b3c 1b51 023e
00000080: 9bc7 e039 8216 fc3d 46bb 6bbe c6eb 0b3d
00000090: 5fc6 153d 4430 ccba 66e7 623d d3fa 0fbd
000000a0: f579 16bd 5093 26bd b809 52bd afb8 11be
000000b0: f9c4 7abd c406 04bd fe1c 553c ecb4 5bbe
000000c0: a42a 5e3d 426a 3b3d 6a89 663d 8dea 153d
000000d0: 4a9a e13c 82b9 843e fe7e a43e 0bae c7bd
000000e0: 35da a53c 7d14 763e 39b3 07be 07a5 6a3d
000000f0: 6258 6d3e 6d9e 0d3e c8be cabc 517a d53d
00000100: 3b60 4abe efb2 1b3d 46e8 8ebd 8540 f8bc
00000110: 9469 5ebe 3f2a 183e f87f 973c a8fd 343e
00000120: a88c c3bc b303 a0bd 2022 3ebe e78f 1dbe
00000130: 3b71 76be d4b4 153e 6160 b6bb 8309 3bbd
00000140: b9f6 3c3e 497a 3fbe 0966 a7bb 1c0a 583d
00000150: 5f55 6b3e c6ea 0d3d c437 31be 165e 91bc
00000160: ef02 e5bc 71ee c9bd f95d 103e 11f6 e83d
00000170: f8b9 7ebd 0d72 dbbc e5f7 d9bc 35dd 09bb
00000180: eeee aebd df24 f9bd 4e70 2e3d 62c6 fbbc
00000190: f35b 663d 0c17 943d d1f1 a23c 25da 78bd
000001a0: 6bbb d1bc 7bd9 56be e509 633e 4414 6cbe
000001b0: c091 a2bd 2179 a9bd a4bb 84bd 998c c0bc
000001c0: 8b52 583d 77cc e63d 7343 213e 17da bd3d
000001d0: 8bfc 7b3e 3c2d d73d 7745 ecbc 57c2 813d
000001e0: 9572 04be 984d bc3d 9aad 88be 500c 8d3e
000001f0: 4415 cfbd cb7f a33c 8d73 223d 7fbb 013e
00000200: 4839 dfbd d466 323e 38ce 0c3e b3dc 113d
00000210: 19c9 483e e3d6 0cbc ff31 a13d d3e7 dc3d
00000220: 13a1 2bbe 50d8 de3c 55ff 84bd b0b9 0ebe
00000230: f032 993e 244d 193c f9d0 febd 983c 2fbd
00000240: 44a3 ee3d 942d 0dbe 90f7 423d 3745 53be
00000250: b036 b5bd b6c4 93bd f8a0 5e3d 1d5a 323e
00000260: a704 59be 63c2 23be 26b3 40be 33a1 853d
00000270: c36e 363d dce4 ec3d f727 8b3d 7ffa 81be
00000280: 1d48 213e defe cdbc a9ea 4fbe f604 17be
00000290: 06e5 00be 86ff afbc c8a2 513e 5d82 ac3b
000002a0: 62a0 fabd 0cbb 04bd 462c da3d fe9e 59bc
000002b0: aea6 193e ab28 01be 6d1a 2e3d f0c8 f8bd
000002c0: 0b3d 06bd d71e 4cbc ae61 8fbd 732f 1bbe
000002d0: e6f4 82bd c703 573e 8fab f6bd 0ba5 8cbd
000002e0: 01da 593d 422e 31bd 9875 d03d 990f 893d
000002f0: 5a4e 9e3d ab8c bfbc fa0b 2cbc 4fc6 2e3e
00000300: a6fe 1b3d 44a7 303e e664 85bc 8f48 babd
00000310: 3b8f 493b 5fae 3a3e 1e3e 80bd c707 09be
00000320: 90f9 ad3d cd47 eabd 8f38 24bc 8a4e 7ebd
00000330: 4eeb 9e3d c06e f6bd 5798 acbd 879d 8bbe
00000340: 4ecb 4cbd 38ab fbbd 2052 b6bd a291 78be
00000350: c5c0 a63b 0dd6 ccbd dcc9 ddbd 1979 483e
00000360: c206 74bc 357f 3e3d 4560 2bbc e4fb f13d
00000370: d0b8 65be 04dd 2cbe e2fd 043e e093 583c
00000380: 6b8a b2bd dac6 fabd d968 ce3d bb09 6abd
00000390: dc6d 143d b08a 0f3c 91e5 e93d d4e8 e8bd
000003a0: 77c1 d4bd 0304 f33c 9b95 933d 3ece 853d
000003b0: 9789 cbbe 3915 d7bd cfea 68be 9f52 cbbb
000003c0: 6f43 ae3d 9876 c8bc 0276 36be fe21 833d
000003d0: 4813 71bd 7add 133e 6438 c7bc ec93 f93c
000003e0: 63c4 eb3d eed3 c9bd 5d6b ea3d d478 04bc
000003f0: 9d39 e33d f340 9dbc fca9 cebc 497a 503e
-0.024032313 0.0040092333 -0.06932226 0.059639387 -0.122243494 0.109151155 -0.093566425 0.15993364
0.019672643 -0.0350758 -0.14063445 -0.10198885 -0.0455803 0.07148877 0.110248 0.057219476
-0.032298587 0.08198125 0.15518317 -0.0021710398 0.024947137 -0.09849669 -0.093258835 0.16317502
-0.112059355 -0.1635067 -0.05989848 -0.10502533 0.09927765 -0.059438232 0.015359545 0.12726252
0.00042873327 0.123089805 -0.23020658 0.034160398 0.036566135 -0.0015578349 0.05539646 -0.035151314
-0.0367374 -0.040667832 -0.0512788 -0.14230607 -0.061223004 -0.032233015 0.013007401 -0.21455735
0.054239884 0.045755632 0.056283392 0.03660064 0.027539391 0.2592278 0.32128137 -0.09749993
0.02024565 0.24031253 -0.13251962 0.05728629 0.23178247 0.13829966 -0.024749175 0.10423721
-0.19763272 0.03801244 -0.069778964 -0.030304203 -0.21719962 0.14859866 0.018493637 0.17674887
-0.023870781 -0.078132056 -0.18567705 -0.15386926 -0.24066631 0.14619762 -0.0055656885 -0.045663368
0.18453492 -0.18698992 -0.005108599 0.052744016 0.22981785 0.034647726 -0.17306429 -0.017745059
-0.0279555 -0.09859932 0.14098348 0.113750584 -0.062189072 -0.026787782 -0.026607463 -0.002103639
-0.08541666 -0.12165236 0.04258757 -0.030734245 0.056240033 0.07230958 0.019890698 -0.060754914
-0.025602063 -0.209814 0.22171743 -0.23054606 -0.07937956 -0.08275057 -0.06481102 -0.023504542
0.052813094 0.11269467 0.15748386 0.09270113 0.24608056 0.10506675 -0.028841717 0.063358955
-0.12934335 0.09194487 -0.26694947 0.27548456 -0.10111478 0.019958397 0.03966098 0.1266918
-0.108995974 0.17422038 0.13750541 0.035610866 0.19607963 -0.008596155 0.07870864 0.107864045
-0.16760664 0.027202755 -0.06494013 -0.13938022 0.29921675 0.009356771 -0.12442202 -0.042782396
0.11652234 -0.13786918 0.047599375 -0.20631872 -0.088483214 -0.07215254 0.05435273 0.17417188
-0.21193181 -0.15992121 -0.1881834 0.06524887 0.044539224 0.11567089 0.06794732 -0.25386426
0.15750165 -0.025145944 -0.2030436 -0.14747986 -0.12587366 -0.021484148 0.20472252 0.005264564
-0.12237622 -0.032404944 0.10652976 -0.013282536 0.1500499 -0.1261317 0.04250567 -0.12147701
-0.03277306 -0.012458525 -0.07001053 -0.15154819 -0.06394367 0.20997535 -0.12044441 -0.06867417
0.05318642 -0.043257006 0.10178679 0.06692428 0.07729788 -0.023382505 -0.010500902 0.17067836
0.03808465 0.17251307 -0.016283464 -0.09095871 0.0030755538 0.1823058 -0.06261848 -0.13381873
0.08494866 -0.11439476 -0.01002325 -0.06208662 0.077597246 -0.12032843 -0.08427494 -0.2726862
-0.049998574 -0.12288517 -0.08902383 -0.24274305 0.005088898 -0.100017644 -0.10829517 0.19577445
-0.014894189 0.046508033 -0.010459964 0.118156224 -0.22433782 -0.16881186 0.12987474 0.01321885
-0.087178074 -0.12244959 0.10078592 -0.057138186 0.036237583 0.008761093 0.114207394 -0.113725334
-0.10388463 0.029664999 0.07206269 0.06533478 -0.3975341 -0.10502095 -0.22745822 -0.0062049176
0.08508956 -0.024470612 -0.17818454 0.06402968 -0.05885628 0.14439955 -0.024318881 0.030466042
0.11512067 -0.098548755 0.11446259 -0.008085448 0.11094973 -0.01919601 -0.02522754 0.20359148

109 f4 [120, 20, 1, 1]
00000000: c85b 94bd 1143 d63d 2903 febd 2fba 5b3e
00000010: 1203 413d 3d38 383c fe35 04bd 2373 3b3e
00000020: 9513 3dbd 2df8 023e ae06 6cbe 6e56 1a3e
00000030: 2565 783c 1f49 02be 79e1 ef3d 2e5e 99bd
00000040: ce26 48bd a453 0a3e 4992 80be e29f 093d
00000050: 5e6a c0bd 9a20 da3d aca7 6abe b616 3d3e
00000060: 4585 f83c 8360 0cbe 6bab aebd 27f3 0c3e
00000070: 8a6d 433c 27bb 9ebd 25ed dd3d 50cd 2fbe
00000080: c0b7 193e 50b0 33be 4342 653d 0563 b53d
00000090: 5c91 2dbd 8ed1 27bd 8634 6d3e a4d4 06be
000000a0: 43d9 253d f9bd 82bd 14b3 bf3d e8d8 223d
000000b0: f7d2 30be f952 ba3d b1b6 203e 2141 89bb
000000c0: fe29 7abd 2146 02be e471 d43d d7ff 4ebc
000000d0: 2763 1dbe 6e37 a53d 5342 5b3b a34d f4bc
000000e0: dcd5 0b3e 9fea 85bc 4906 d13d 6b3c c73d
000000f0: abb3 24be 90c7 513e 2873 383d f5da 703d
00000100: 80d9 19bd de33 fb3d f09d c93d 516e 563d
00000110: 344a 133e 5a25 e9bc bd78 d7bc 4ea6 2c3d
00000120: 1a81 4b3d 801a 75bd 43cf ccbd 25e4 453e
00000130: 1ecf 94bd b823 1dbd 8ce1 a7bd 15e8 adbd
00000140: fe05 a93d cb6e fd3d 83d1 af3d da88 1c3e
00000150: ded3 663e d542 0a3e 9b05 6abe fea1 96bd
00000160: cf45 013d 9416 123c ddc5 643d 3980 903d
00000170: e417 37be 0868 31bd 90ed 9c3d 9667 73bc
00000180: f3c0 89be f109 b0bc b567 ee3c 74eb dbbd
00000190: 8732 0dbd aebd 113d 712f 8bbd b86f 013e
000001a0: c763 463d 1f83 5fbd 3b37 3bbc 3c78 063e
000001b0: 1118 7c3d ca1b 0dbc 320a 60be ad13 35be
000001c0: 128f e1bd 623b f5bd 5112 8bbb d40b 4a3e
000001d0: 7f11 3e3e a522 17bc 7941 9e3d 8956 f23d
000001e0: 105b 253e 58d9 2f3c 4509 28be 5b94 51bc
000001f0: 5ef9 c53d 373e 4b3d 4f05 a63b 741e 8ebd
00000200: 8a13 3e3d 733f 103e 8ef5 c5bd 9ddf f7bc
00000210: 4795 903d 8a09 303c caa2 113e 054f 063e
00000220: 5ff2 11bd 0f55 853c 3aed 3fbc aa3d 49be
00000230: 5fde 15bd e78c f13c cb99 653d e44d 063e
00000240: 190e a7bc fc86 c63c e8e6 b43d 9d78 a6bd
00000250: 5dfe e53c 81fd d8bd 3e31 823e 676e 183e
00000260: 34e5 043e 3b50 1a3d 3a81 3e3c fdf7 bc3d
00000270: 7618 4ebd c50d a63c 514e 07bc e248 543d
00000280: 31d3 763d afcd 51bd 56fd 853d dabf f53d
00000290: a5b4 c1bd f1d1 8e3e d36c f83d 81e6 d9bc
000002a0: 5e5c 1cbe 7d4b 07be 5697 aabe 3574 4b3d
000002b0: 99cc 053e bb76 883d 7652 aabd f014 fdbd
000002c0: 7096 fc3b 08ff 693d 2877 683d 5cb7 973d
000002d0: 9e9d b6be 5ab6 a93d 7579 adb8 a760 0b3e
000002e0: 9444 cd3d f252 35be f59b f3bd 2f69 a3bc
000002f0: 7438 15be db6b ccbc 83ac 573d 02b5 dfbd
00000300: 2a5f 73be cc83 d03d 15ad c9bd 0b42 383e
00000310: df71 30be 9d04 3abd 52eb 61bd bba2 6ebd
00000320: 9fd4 95be 3b94 6c3e 5d37 97bd 43a6 4bbd
00000330: 728a 0cbe 8483 20be 29c9 143e 93ae 453c
00000340: 5bea 1a3e fb56 07be 7d97 5a3e 1adf a7bd
00000350: 81c8 50bd f6a9 53be 5fb1 203d de70 003e
00000360: 1400 c63c 0635 77bd 9f88 873e 368c 1bbe
00000370: 1136 9dbd 95cd e23d 018b 23bd a464 56be
00000380: 1c9b 663e e43f a13e bc77 053e 2687 313e
00000390: ccf1 3f3c 98b1 57bd 9fb2 79bd a30b 0f3c
000003a0: 816e 603e 62fe 823d da19 e23d 1234 b43d
000003b0: 924f c1bc 8d0d 1d3d c121 04be 3504 babd
000003c0: 2f76 04bd bad1 523d 405a 17bd b383 61bd
000003d0: ab99 ac3d 602a 133d 9728 28be 34a1 16be
000003e0: 7200 023e 11a0 0d3d abf9 1cbe 5089 b3bd
000003f0: 6ced 1a3d 3f2b de3d c70f 913e 1862 883e
-0.072440684 0.10462011 -0.124029465 0.21457742 0.04712207 0.011243877 -0.032278053 0.1830564
-0.046161253 0.12789984 -0.23049423 0.15072033 0.0151608335 -0.12723206 0.11712927 -0.074886665
-0.048865132 0.13508469 -0.25111607 0.03359974 -0.09395288 0.106507495 -0.22915524 0.18465695
0.030336985 -0.13708691 -0.08528789 0.1376463 0.011927972 -0.0775054 0.10836247 -0.17168164
0.15011501 -0.17547727 0.055971395 0.08856777 -0.042374954 -0.04097133 0.23164567 -0.13167053
0.0404904 -0.06383891 0.09360328 0.03975764 -0.17267977 0.09097857 0.15694691 -0.004188672
-0.061075203 -0.12722065 0.103732854 -0.012634239 -0.15369855 0.08067213 0.003345628 -0.029822176
0.136558 -0.016347228 0.10206277 0.09728321 -0.16084163 0.20486283 0.045031697 0.058802564
-0.03756094 0.12265752 0.09844577 0.0523513 0.14383775 -0.028460193 -0.02630269 0.042150788
0.049683668 -0.059839725 -0.100004695 0.19325311 -0.07266067 -0.038364142 -0.081973165 -0.08491532
0.08253096 0.12374648 0.08584883 0.1528658 0.22541758 0.13502057 -0.22853701 -0.07355116
0.031560715 0.008916516 0.05585276 0.070557065 -0.17880207 -0.043312103 0.07662499 -0.01485624
-0.2690502 -0.021489115 0.029102186 -0.107382685 -0.034472015 0.035581283 -0.06796158 0.12640274
0.048435 -0.054568406 -0.011426742 0.13131803 0.06154639 -0.008612582 -0.21878889 -0.17683287
-0.110136166 -0.11974217 -0.004244127 0.19731075 0.18561362 -0.0092245685 0.07727332 0.118329115
0.16148019 0.010732971 -0.16409786 -0.012791718 0.09666704 0.04961988 0.005066551 -0.06939402
0.046405353 0.14086704 -0.096659765 -0.030257994 0.070597224 0.010744462 0.14222255 0.13116081
-0.035631534 0.01627591 -0.011714274 -0.19652429 -0.036589023 0.029486133 0.05605487 0.1311565
-0.020392464 0.024234287 0.08833104 -0.08128474 0.028075391 -0.10595227 0.25428194 0.14885865
0.12978059 0.03767417 0.01162749 0.092269875 -0.050316297 0.020270238 -0.008258418 0.05182732
0.06026 -0.051221546 0.065424606 0.119994834 -0.09458283 0.27894548 0.121301316 -0.02659917
-0.1526961 -0.1321239 -0.33318585 0.04967137 0.13066329 0.06663271 -0.083165094 -0.12357509
0.0077083632 0.057127982 0.05675426 0.0740802 -0.35667127 0.08286734 -8.271906e-05 0.13611089
0.10022846 -0.17707422 -0.11894981 -0.019947616 -0.14572316 -0.024953773 0.052654754 -0.109231964
-0.23766771 0.10181388 -0.09847466 0.17993943 -0.17230938 -0.045414556 -0.05515606 -0.05826066
-0.2926378 0.2310342 -0.073836066 -0.049719106 -0.13724688 -0.15675169 0.14529862 0.0120655475
0.15128462 -0.13216774 0.2134685 -0.0819685 -0.050972465 -0.20670304 0.039231654 0.12543055
0.02416996 -0.0603533 0.2647142 -0.15190205 -0.07676328 0.11074368 -0.039927486 -0.20936829
0.22520107 0.31494057 0.13033956 0.17336711 0.011715364 -0.0526596 -0.060961362 0.008730802
0.21917154 0.06396176 0.11040087 0.08798994 -0.023597512 0.038343 -0.12903501 -0.09082834
-0.03233927 0.051469542 -0.036951303 -0.05505724 0.08427747 0.035929084 -0.16421734 -0.14709932
0.12695482 0.03457648 -0.15329616 -0.08766425 0.03782408 0.10848092 0.2833235 0.2663734

11 f4 [16]
00000000: c6d5 763d 1fa8 773d 4d1d 893d dea6 183d
00000010: 0023 d83c 5616 013d d128 023d 0a68 f53c
00000020: 100c c83c 167a ff3c 2229 4a3d 574a 1b3d
00000030: 28cb 3e3d 0cee 573d 9f70 8f3d 1c68 813d
0.060262464 0.060463067 0.06695042 0.037268512 0.026383877 0.03151544 0.031777207 0.029956836
0.024419814 0.031186145 0.049355634 0.037912693 0.046580464 0.052717254 0.07003903 0.063186854

110 f4 [240]
00000000: 87ac 7a3f d4b1 7a3f 91a9 7a3f 4ea5 7a3f
00000010: 4937 7b3f fbca 7a3f c1a7 7a3f c4b4 7a3f
00000020: 9bae 7a3f 46e5 7a3f 36af 7a3f fdca 7a3f
00000030: 4bce 7a3f d7bd 7a3f 8eb0 7a3f 6b9c 7a3f
00000040: 2651 7a3f 4bd6 7a3f 81b1 7a3f f79f 7a3f
00000050: a0aa 7a3f 07df 7a3f 96ab 7a3f 01aa 7a3f
00000060: 299d 7a3f 5f9d 7a3f 3ca9 7a3f 20b6 7a3f
00000070: 87ba 7a3f 639d 7a3f b1d9 7a3f 59c0 7a3f
00000080: a5a8 7a3f f39f 7a3f b4bd 7a3f 77b0 7a3f
00000090: dda4 7a3f a397 7a3f 78ab 7a3f 77e2 7a3f
000000a0: bcab 7a3f cfa0 7a3f beb6 7a3f 30ad 7a3f
000000b0: 6faa 7a3f d7c9 7a3f 7bb0 7a3f 4db9 7a3f
000000c0: e8b8 7a3f ec92 7a3f f8a7 7a3f 33ec 7a3f
000000d0: 9894 7a3f 73c8 7a3f 0cb4 7a3f 77b5 7a3f
000000e0: a35b 7a3f 62a6 7a3f 0fa8 7a3f c8a5 7a3f
000000f0: 7cb2 7a3f 0087 7a3f 9014 7a3f bfa6 7a3f
00000100: 80a2 7a3f 2398 7a3f c0d6 7a3f 6e98 7a3f
00000110: 92a8 7a3f ef9e 7a3f 7f96 7a3f 0aac 7a3f
00000120: ea7d 7a3f ce92 7a3f 76ab 7a3f b1b6 7a3f
00000130: 0add 7a3f 58c0 7a3f 2c94 7a3f 71b3 7a3f
00000140: 37a1 7a3f b3a8 7a3f 1ab8 7a3f 36b4 7a3f
00000150: 48a0 7a3f 01bb 7a3f caa4 7a3f 0fe4 7a3f
00000160: 25ac 7a3f fdc5 7a3f 48b8 7a3f 8930 7a3f
00000170: 16dc 7a3f 5186 7a3f 4fc2 7a3f 5ab5 7a3f
00000180: 91be 7a3f 1ebf 7a3f bbaf 7a3f e7a1 7a3f
00000190: 0ab3 7a3f 79c4 7a3f 5a9d 7a3f 25bd 7a3f
000001a0: 8ecd 7a3f ce8e 7a3f 6669 7a3f c597 7a3f
000001b0: f69e 7a3f 96d4 7a3f e2a5 7a3f 19bf 7a3f
000001c0: fd9a 7a3f 83a3 7a3f 7bb5 7a3f 76b9 7a3f
000001d0: 46bc 7a3f 4197 7a3f eea7 7a3f 1cc7 7a3f
000001e0: 1ca5 7a3f 93d6 7a3f d479 7a3f eab9 7a3f
000001f0: 6bd1 7a3f 2c97 7a3f 2fb7 7a3f e5f7 7a3f
00000200: abd9 7a3f a0ae 7a3f 9ac8 7a3f 0806 7b3f
00000210: 62a7 7a3f 8f0e 7b3f cdd7 7a3f bca2 7a3f
00000220: 4de2 7a3f 89d6 7b3f 3e16 7b3f 8fe3 7a3f
00000230: adc1 7a3f 42dc 7a3f cf8f 7a3f 818c 7a3f
00000240: bebf 7a3f a129 7b3f 4895 7a3f e3a3 7a3f
00000250: 984c 7b3f 54d0 7a3f d5b3 7a3f c5f4 7a3f
00000260: bbd1 7a3f 4b37 7a3f ee6a 7a3f dcbc 7a3f
00000270: 1ae0 7a3f 74c5 7a3f c2f0 7a3f 8fee 7a3f
00000280: 12e4 7a3f 4fbd 7a3f 969b 7a3f 9346 7b3f
00000290: 88c3 7a3f d6cf 7a3f aebc 7a3f 01c1 7a3f
000002a0: a09d 7a3f e7aa 7a3f edd7 7a3f e1ec 7a3f
000002b0: 1c66 7b3f 96c2 7a3f 66b3 7a3f 06d4 7a3f
000002c0: 54d4 7a3f bcbb 7a3f e472 7a3f c685 7a3f
000002d0: 52d6 7a3f cf84 7a3f 6292 7b3f 26d7 7a3f
000002e0: c2e2 7a3f 53df 7a3f 06bb 7a3f 7817 7b3f
000002f0: 0a96 7a3f 4cca 7a3f e3db 7a3f dacf 7a3f
00000300: 1afb 7a3f 4dbf 7a3f ee12 7b3f 3f25 7b3f
00000310: 2164 7a3f 28a6 7a3f c5d6 7a3f e79f 7a3f
00000320: dfee 7a3f 13ab 7a3f 79c3 7a3f a6b3 7a3f
00000330: 129b 7a3f 6fe8 7a3f 3bbc 7a3f 0aae 7a3f
00000340: 43f9 7a3f 67fc 7a3f f5ae 7a3f 22bf 7a3f
00000350: c0ad 7a3f 3da3 7a3f 12ce 7a3f 64aa 7a3f
00000360: f2d4 7a3f a7c4 7a3f 71c2 7a3f aa91 7a3f
00000370: 17f8 7a3f dbbb 7a3f 80a8 7a3f cfc2 7a3f
00000380: b9d1 7a3f 8ebc 7a3f 569a 7a3f d1ab 7a3f
00000390: 3e6c 7a3f 74b3 7a3f d4d0 7a3f d330 7b3f
000003a0: 0aa1 7a3f 36a9 7a3f 62e5 7a3f bca0 7a3f
000003b0: 9ac3 7a3f 6c74 7c3f 9ba5 7a3f e668 7a3f
0.97919506 0.97927594 0.9791499 0.97908485 0.98131233 0.97965974 0.9791222 0.97932076
0.97922677 0.98006094 0.979236 0.97965986 0.9797103 0.9794592 0.9792565 0.97894925
0.9778007 0.97983235 0.979271 0.97900337 0.97916603 0.9799656 0.9791807 0.97915655
0.9789606 0.9789638 0.9791448 0.9793415 0.9794087 0.97896403 0.9798842 0.9794975
0.9791358 0.97900313 0.97945714 0.97925514 0.9790781 0.9788763 0.9791789 0.9800181
0.97918296 0.97901624 0.9793509 0.97920513 0.9791631 0.97964233 0.9792554 0.97938997
0.97938395 0.97880435 0.9791255 0.9801666 0.97882986 0.9796211 0.9793098 0.97933143
0.97796077 0.9791013 0.9791269 0.9790921 0.97928596 0.97862244 0.97687626 0.97910684
0.97904205 0.9788839 0.9798393 0.9788884 0.9791347 0.97898763 0.9788589 0.9791876
0.9784838 0.97880256 0.9791788 0.97935015 0.9799353 0.97949743 0.9788234 0.97930056
0.97902244 0.97913665 0.97937167 0.9793123 0.9790082 0.97941595 0.979077 0.9800424
0.9791892 0.97958356 0.9793744 0.9773031 0.97992074 0.978612 0.9795274 0.9793297
0.9794703 0.9794787 0.97924393 0.97903293 0.9792944 0.97956043 0.9789635 0.9794486
0.979699 0.9787415 0.97817075 0.9788783 0.97898805 0.9798063 0.9790937 0.9794784
0.97892743 0.9790575 0.9793317 0.9793924 0.9794353 0.97887045 0.9791249 0.97960067
0.97908187 0.97983664 0.97842145 0.9793993 0.97975796 0.9788692 0.97935766 0.9803451
0.97988385 0.97922707 0.97962344 0.9805608 0.97911656 0.9806909 0.97985536 0.9790456
0.9800156 0.9837423 0.98080814 0.98003477 0.97951776 0.97992337 0.97875684 0.9787064
0.97948825 0.98110396 0.97884035 0.9790632 0.9816375 0.97974133 0.9793065 0.9802974
0.97976273 0.9774062 0.9781941 0.97944427 0.979982 0.9795754 0.9802362 0.9802026
0.9800426 0.9794511 0.97893655 0.9815456 0.97954607 0.9797338 0.9794415 0.9795075
0.97896767 0.97917026 0.97985727 0.980177 0.9820268 0.97953165 0.9792999 0.9797977
0.97980237 0.9794271 0.9783156 0.9786037 0.97983277 0.978589 0.9827024 0.9798454
0.98002255 0.97997016 0.97941625 0.98082685 0.9788519 0.9796493 0.9799177 0.97973406
0.980394 0.9794815 0.9807576 0.9810371 0.97809035 0.97909784 0.9798396 0.9790024
0.9802074 0.9791729 0.9795452 0.9793037 0.9789287 0.98010916 0.97943467 0.9792181
0.98036593 0.98041385 0.97923213 0.97947896 0.9792137 0.9790533 0.9797069 0.97916245
0.9798118 0.9795632 0.97952944 0.97878516 0.98034805 0.97942895 0.9791336 0.97953504
0.9797626 0.9794396 0.9789175 0.9791842 0.97821414 0.97930074 0.97974896 0.98121375
0.97901976 0.97914445 0.9800626 0.9790151 0.97954714 0.98615146 0.97908944 0.9781631
